HW2/BEST_STEP_2_150.pt.pt (torch_old, 57198 bytes, 12 tensors)

log_std f4 [6]
00000000: bb04 22bf be71 21bf 6e6e 1cbf c377 07bf
00000010: 096f 22bf a307 20bf
-0.6328847 -0.6306418 -0.61106 -0.52917117 -0.63450676 -0.6251165

weight f4 [64, 26]
00000000: b8cd fd3c da75 d73d 291e 3cbe 5aa6 6dbe
00000010: 16b2 9abd 38bf db3c 00a7 7ebb c513 ef3d
00000020: 56b5 61bd 87ee 14bc 8d9c 85bd 97fd a4bd
00000030: 1c11 3fbe baaa dfbd f772 d4bd 9fc6 b4bc
00000040: 3bba 6e3c ea0c e83c 19c3 06be ade7 c7bc
00000050: d0d9 2b3d de83 193e 3700 b1bd d5a9 043e
00000060: 1ce5 c13c 27b9 46bc 0440 243e 274c 3abe
00000070: 6317 e1bd a121 23be c08f 9cbd 4c71 933d
00000080: 5a2b 02be 8dd8 cbbd d8fd a1bd aae5 81be
00000090: fc89 f4bd 3ae2 413e 812c c73d 4be2 1d3e
000000a0: 7759 373c d305 15be 8dfa 04bd d818 89be
000000b0: e7fb 1cbe 7970 04be 545f 003e f0ab 203e
000000c0: 6356 efbd 42d2 05bc 75c2 ae3d 74e1 543e
000000d0: e97e 573d b809 d93c 7938 123e fd7b 79bd
000000e0: 48b0 153d e1ee 4abe 0630 0bbe f247 9abd
000000f0: 1181 b43d fb6d ad3d cbfe dbbd 33fd a03d
00000100: f4bb d63d 6de5 29bd a194 aa3c bc36 d83d
00000110: 91f0 e73d 1cbb 543e 7ce1 24be 1eea 1fbe
00000120: 43dd b83d 75ac 443e e0af 3d3e 14e8 3a3e
00000130: d7ef fc3c f55b 21be 6a8b 703c 9445 fbbd
00000140: bcf3 34be 8ce7 6f3d 9bb2 183e 7faa 70be
00000150: 905a 163d 4464 7abd 3afc aabc 5d52 febd
00000160: 12aa 8f3d ad18 06be c90f ac3d 0404 053e
00000170: 900e 033e 316a aeb8 16e8 87be d19c 56be
00000180: d38a b63d d322 633d 28e2 26be bcdc 81bd
00000190: f70c 103e 21a3 f83d 5e78 69bd 427a 29bd
000001a0: 1715 30be 0004 67bb 45d8 22be 9040 90bd
000001b0: 500b 31bc d5e5 773d 737c a4bd 7309 fc3d
000001c0: 098a eabd 5870 283e 03ac 153e 5e64 ffbd
000001d0: 1416 45bd 9994 2d3d c4db f73c 2589 9d3d
000001e0: 5cad 063e 9656 8c3d b5e4 a2bd 5cb0 f33d
000001f0: 9282 3fbe 26c6 1fbe 4830 c9bc 81f3 c0bd
00000200: d702 c6bd 64ed 22be 8a10 aabc 74b5 2b3d
00000210: 9620 16be c168 b73b 5fc2 0f3e 03bc 0d3d
00000220: 209a b23b facc e9bc 5969 463c a311 f93d
00000230: e56e 243e 7ccb d93d 9ebf 2c3e 6d82 00bd
00000240: 079e 3cbe 5b3f ddbd 3e39 293e 2881 73bb
00000250: 1f6f 9fbd 3fdb 99bd bbe7 46be 21c6 47be
00000260: 32b5 30bd c46c d43d 7834 1c3e 7cdf 52be
00000270: 4e6f 003e 5525 1dbe 95d9 3abd 51a5 833d
00000280: ecb9 1abd f276 e1b9 5c35 34be d25c 26be
00000290: 2aa0 f43b 8836 cd3d b59c 94bd ad76 843d
000002a0: 24a8 2dbe 2cd1 5bbc 5c63 393e e123 5fbd
000002b0: dc31 753e a234 383e 2be0 23be 579e 1b3e
000002c0: 0a43 68bc 5ff1 1cbe d2a2 483e 0a34 1ebe
000002d0: 9d8a c0bc c325 47ba 19b8 183e 043c 603d
000002e0: f95d bf3d 5779 4fbd dc2b 41bd efc6 74bd
000002f0: 947e 25be 19d9 8d3d 579a 233e edbd dd3d
00000300: 12c5 13be 52fb bcba d096 f7bd 611e 9cbd
00000310: 7d9c 0ebe 292f e33a be42 3bbe 433a 9fbd
00000320: 25d1 4e3c 1629 1f3e adc2 2bbe ed82 dbbd
00000330: 614f 1fbe 6183 f43d 4552 6ebd ba1d 2c3e
00000340: 5f96 cc3d 706f cb3c a4b8 4ebc 38a2 2fbe
00000350: 7892 c93c 1481 26bd 009e b4ba 4252 f53a
00000360: fc89 41be 43ad 3fbe 849e e23d 8469 5ebe
00000370: b79b 37bd e06c 583e 5d05 493d 2b1c 46bd
00000380: 041a 7fbe e5b1 1ebc 55fa ffbd b9af 1abc
00000390: 1d5c bcbd 221c e0bc a494 6abd 1ce6 173e
000003a0: 9a5d d03d 8c81 0a3e a42f 1f3e 15ed fdbd
000003b0: e734 8d3d 39d5 86be 453a aabd 237b 713d
000003c0: ca9e 843d a410 cf3d 620c 99bd dc22 b6bd
000003d0: 645d df3d ab04 50be 4f0c 233e 10b9 9ebd
000003e0: dd21 f7bc 56f2 c8bd 3a8f 06be 8106 4dbd
000003f0: bce9 243e ac32 05bd 7ba3 19be 1ad5 abbd
0.030981883 0.10520525 -0.1837088 -0.2320799 -0.075534984 0.026824579 -0.0038856864 0.116736926
-0.055104576 -0.0090900725 -0.06524 -0.08056181 -0.1865887 -0.109212354 -0.1037349 -0.022067366
0.014570768 0.02832647 -0.13160361 -0.024402464 0.04195577 0.1499171 -0.08642619 0.12955411
0.023668818 -0.012129105 0.16040045 -0.18193112 -0.10990789 -0.15930797 -0.07644606 0.07199344
-0.1271185 -0.09953413 -0.07909745 -0.25370532 -0.11940381 0.18933955 0.09725285 0.15418355
0.011190764 -0.14553003 -0.032465506 -0.26776767 -0.15330468 -0.1293353 0.12536365 0.15690589
-0.11686399 -0.008167805 0.085331835 0.20789129 0.052611265 0.026493892 0.14279355 -0.06090926
0.036545068 -0.19817688 -0.13592538 -0.07533254 0.0881368 0.08468243 -0.10741957 0.07860794
0.10485068 -0.041478563 0.020822825 0.10557315 0.11325181 0.20774502 -0.1610164 -0.15616652
0.09026577 0.19206412 0.18524122 0.18252593 0.030876083 -0.15757735 0.014681676 -0.1226913
-0.17671102 0.05857043 0.14911883 -0.23502539 0.03670746 -0.061130777 -0.020872224 -0.12418053
0.0701486 -0.1309535 0.08401448 0.12989813 0.12798524 -8.316746e-05 -0.26544255 -0.20958258
0.08913197 0.055453133 -0.1629721 -0.0634093 0.14067446 0.12140489 -0.056999557 -0.04137636
-0.17195545 -0.0035250187 -0.15902813 -0.07043564 -0.01080592 0.06052192 -0.08031549 0.1230649
-0.11452109 0.16449106 0.14616399 -0.124703154 -0.04811676 0.042378042 0.03025616 0.07692174
0.13152069 0.068524525 -0.07953779 0.11898872 -0.18702152 -0.15602931 -0.024559155 -0.09421445
-0.096685104 -0.1591087 -0.02075984 0.041921094 -0.14660868 0.0055972044 0.1403899 0.03460313
0.005450502 -0.028540123 0.012110078 0.12161567 0.16057928 0.10634515 0.16869971 -0.031374384
-0.18419658 -0.108031 0.16525742 -0.003715584 -0.077848665 -0.07512521 -0.19424336 -0.19509174
-0.04314155 0.10372308 0.1525439 -0.20593065 0.1254246 -0.15346272 -0.04561766 0.06428016
-0.037774965 -0.00043003965 -0.1759848 -0.16246346 0.007465382 0.10020167 -0.07256452 0.06467948
-0.16958672 -0.01341657 0.18104309 -0.054477576 0.23944801 0.17988828 -0.16003482 0.1519712
-0.01417614 -0.15326451 0.19593361 -0.15449539 -0.023503596 -0.00075968745 0.14913978 0.054744735
0.09344096 -0.050652828 -0.04716097 -0.05976003 -0.16161567 0.06926174 0.15976845 0.10827241
-0.14430645 -0.0014418161 -0.12089312 -0.07622982 -0.13926883 0.001733278 -0.18287179 -0.077747844
0.012623106 0.15543017 -0.16773482 -0.107183315 -0.15557624 0.11939121 -0.058183927 0.16808215
0.099896185 0.024833411 -0.012617264 -0.17151725 0.024605975 -0.040650442 -0.0013779998 0.0018716531
-0.18900293 -0.18718438 0.11065391 -0.21719939 -0.044826236 0.21135283 0.04907738 -0.048366707
-0.24912268 -0.009685968 -0.12498919 -0.00944131 -0.09197257 -0.027357165 -0.05727066 0.14833874
0.10174103 0.1352598 0.15545517 -0.123987354 0.06894856 -0.2633455 -0.08311895 0.058955323
0.06475599 0.10110596 -0.07473065 -0.08893368 0.10906485 -0.2031428 0.15922664 -0.077501416
-0.030167514 -0.09811847 -0.13140574 -0.05005503 0.16104788 -0.032519028 -0.15003769 -0.08390255

bias f4 [64]
00000000: 82b2 aebd 1bf8 dd3d e899 e1bd 4161 463e
00000010: 617b 033e 698a 923c 272d aa3d b735 8a3d
00000020: 1dee 01be 00be a9bc 2c48 973d 61b5 7cbd
00000030: e38e 183e 7066 5fbd e1be 43be d0b4 c7bd
00000040: 527b 4cbe 8fb0 2f3e 57f8 dfbd 5589 1bbe
00000050: f528 04bd b4b3 dfbd d201 e2bd 33da e13d
00000060: 06d5 17be e172 cc3d a0b3 103e e5c6 43bc
00000070: 7c62 c83d 3b3d c8bd c080 0e3e 6863 3f3e
00000080: b7e1 1f3d 10dd 3c3e db04 38be 06ea e2bc
00000090: b983 c53c e6e5 11be 5158 d83d 238d 8bbd
000000a0: 927b 75bd c1c7 2abe 498f 913d 22c7 26be
000000b0: 9c68 4bbd 7de6 a03d 19a7 1b3e 712e 193d
000000c0: db70 b6bd c409 87bd fcae d73d 8105 263d
000000d0: aa80 193e 2fd4 6b3d 59dc 1a3e 3360 17be
000000e0: 9931 183e 7927 c6bd fbfa 5dbd 8c69 24bc
000000f0: facd 31bd bd92 493d bb8a 1c3e 0c38 febd
-0.085301414 0.10838338 -0.110156834 0.19373037 0.12840034 0.017888265 0.083093934 0.067485265
-0.1268849 -0.020720482 0.073868126 -0.061696414 0.14898257 -0.05454105 -0.19115783 -0.09751284
-0.19968918 0.17157196 -0.10936039 -0.15189107 -0.032265622 -0.109229475 -0.110355034 0.11027946
-0.14827356 0.09982849 0.14131021 -0.011949276 0.097844094 -0.09777304 0.13916302 0.18690264
0.039033618 0.18443704 -0.17970602 -0.027699482 0.024110662 -0.14247856 0.1056372 -0.06814029
-0.0599323 -0.16677763 0.071074076 -0.162869 -0.04966031 0.07856462 0.15200461 0.037397806
-0.08908244 -0.065936595 0.105314225 0.040532593 0.14990488 0.0575754 0.15123118 -0.14782791
0.1486267 -0.096754976 -0.05419443 -0.01003493 -0.043409325 0.049212206 0.15287296 -0.12413034

weight f4 [64, 64]
00000000: 13e7 033d 3f9b 47be e262 333d 7bd9 a03d
00000010: c9bf a13d c29d c03d 7c51 993d 6e65 37bb
00000020: 57d1 753b 791f 5abd c2fd 003e b6fa 613d
00000030: 1960 abbd 0a15 e13d 3059 1f3b d520 18bc
00000040: 351b 40bd efea 8ebd 2848 0b3d 91df 8ebd
00000050: dd70 14be 1e2f b2bd e5ef 88bb cccf e53d
00000060: a75c a33d d046 95bd cfc3 2b3d b929 0e3c
00000070: da54 1ebd 6a6c b7bc e267 53bd 7bce a53d
00000080: ec43 96bd 73fc 943d 5ed1 43bd 6e5b b2bc
00000090: 64c2 b03d 5732 9fbd 0e29 50bb 18da 283e
000000a0: bebb c43d 1594 70bd 961c b3bd 1b16 ebbd
000000b0: 9ff7 94bd 8899 593d 03e5 66bd 5785 e73d
000000c0: 51ed 5fbd 17d8 aa3b 715d 063d 2b6f 003e
000000d0: 8bb7 203e bb66 f33c e84a b33c a917 59bd
000000e0: 2a2d 873d 76ee 8f3b 61b6 13bd 9972 c5bd
000000f0: 42be 1cbe b4b0 c93d 4b7a 9bbc 0768 c93d
00000100: be38 c83c cffe b13c 6d46 343d 1975 22bc
00000110: cd30 3d3d a8df 413d 674f 903b 75cd 953c
00000120: 9fba 443c 819f 0b3d b944 9dbd b3c0 0d3d
00000130: 76a1 a6bd 775b 7c3d bba6 d0bd 22b5 8abd
00000140: af0c b1bd 60ce 283e da33 28be 75d1 6c3d
00000150: 4105 453d 9817 a23d 0bcb 87bd 1924 943d
00000160: ffdd 003e 9161 b43c fd25 9d3d d5d4 20be
00000170: 70f6 14bd 3fa6 d1bc 24c2 e13d c0d7 33bd
00000180: ae09 1cbe c656 603d f43b df3c 1fd2 013e
00000190: 6d56 a9bd 890f 3b3d 41d1 0cbe c937 39be
000001a0: efc7 e3bd be42 c03c c01c d43c b13b 34be
000001b0: 9e95 c53d 9c9f e83d 0538 31bd 64f6 c03d
000001c0: 9b67 21bd c0cd 52bd 6308 1a3c 446a 943c
000001d0: 5096 44bc 020f babd 1d66 be3d 764f 5d3b
000001e0: 7ef3 d63d 545c 09bc 8f95 033d 9aa0 64bc
000001f0: 58ce bc3c 460c ec3c fb17 a73d 659f 6e3d
00000200: 4d4c 443d 2cf5 9f3d 61d8 c9bc 542f 043e
00000210: 7ab9 8abd d618 0b3e c994 a43d a73a f03d
00000220: fdbc 60bd 5503 04bd 596f 52bc 0b09 7e3d
00000230: 75b9 243d 7155 903d 35a1 903d 7791 ecbc
00000240: 7476 23bd 45aa a53d 12b5 0dbc b0fd 61bd
00000250: bae7 293d 4186 8abd 3fc3 0fbe 95d1 93bd
00000260: bfff 0a3e 7ff0 03be d301 c3bd 5a9c 34be
00000270: 4795 2dbc 2d0e d1bd eed2 e83d 7663 e6bd
00000280: 67a4 97bd 2ea7 89bc c82f 62bc 71dd c53d
00000290: 11a0 123e 8aaa 6c3b 6d94 24be 80d6 e9bd
000002a0: 0bfd 8fbd b591 b03c fb44 883d 1d63 153d
000002b0: 5739 b13d dfc4 533d 418b a1bd cfd2 a93a
000002c0: edcb 893b 8b20 8ebd 2242 493c 5778 19bd
000002d0: e69d c2bd 82a7 823d b782 543c e5a6 20be
000002e0: 527a d83d 2404 aebd a25c 503d 4b3a 2a3e
000002f0: 7a60 803c b4f5 d33c f00b 323d d0fd da3d
00000300: bff3 60bc 9758 09be 9246 cb3c 3284 d63d
00000310: a1b1 5cbb 2b36 873d bd2a ae3c 8111 793d
00000320: 88f6 99bc 7fbc 07bd 896c b6bd b7ae 13be
00000330: 96b0 ac3c 6e88 363d 7d69 da3d 2916 35bc
00000340: 3bda 1b3d c889 843d 734e d5bd 26e7 02be
00000350: 7c55 08be c02b 27bc 87d5 55bd c937 c4bb
00000360: 1423 dbbc dd80 863d 2bc6 5a3d abc6 083e
00000370: b9a1 113e bf52 b9bd 319d 3bbd a8fc 363d
00000380: 8e20 d33d c830 c4bd 0d07 d4bc cdea 45bd
00000390: 6e3e 993d e662 1ebd 7243 4abc acb0 9b3d
000003a0: a489 b53d 0c8a b53b 1eef ffbd 3822 cb3d
000003b0: 1e06 9ebd 62b3 b4bd 595a dbbd dac5 06bd
000003c0: 8781 98bd 6f80 babd eca7 05be 81b2 d2bc
000003d0: f995 8f3d 4ba1 abbd 12fa 17bc 5471 49bc
000003e0: 5718 2e3d ea58 003e 7f93 04bd 6c65 b2bd
000003f0: cad4 e2bd e752 34bd 4a6a 0d3c 8176 87bc
0.03220279 -0.19492815 0.043795474 0.07853981 0.07897908 0.0940509 0.07486245 -0.002798404
0.003750881 -0.05325267 0.12596801 0.055170737 -0.083679385 0.10990341 0.0024314635 -0.0092851715
-0.046900947 -0.06978404 0.03400436 -0.06976236 -0.14496179 -0.08700393 -0.0041789883 0.11221275
0.079766564 -0.07288897 0.041934785 0.00867694 -0.03865514 -0.022390563 -0.051612742 0.08096024
-0.07337174 0.07274713 -0.04780709 -0.021772113 0.08630827 -0.077732734 -0.0031762752 0.16489446
0.096061215 -0.058734972 -0.08745687 -0.11478826 -0.072737925 0.053124934 -0.056370746 0.113047294
-0.054669682 0.005213748 0.032803956 0.12542407 0.15695016 0.029712072 0.021886304 -0.05300108
0.06600411 0.0043924404 -0.036062602 -0.096409984 -0.15306953 0.098481566 -0.018979212 0.09834295
0.02444112 0.021727948 0.044012476 -0.009915614 0.04618912 0.047332436 0.0044039967 0.018286446
0.012007385 0.03408766 -0.076791234 0.0346076 -0.08136265 0.061610665 -0.10188051 -0.067728296
-0.08644997 0.16484976 -0.1642603 0.05781694 0.048100714 0.079146564 -0.06630524 0.072334476
0.12584685 0.02201918 0.07673261 -0.15706189 -0.036367834 -0.025591968 0.110233575 -0.043906927
-0.15238068 0.054770254 0.027250268 0.12677811 -0.082684375 0.045669112 -0.13751699 -0.18087687
-0.11122119 0.023469325 0.025892615 -0.17600895 0.09647678 0.11358568 -0.043266315 0.09421995
-0.039405446 -0.05146575 0.009401414 0.018117078 -0.011998728 -0.09084894 0.0929682 0.0033769286
0.10495661 -0.008383829 0.032125052 -0.013954306 0.023047611 0.028814446 0.08158871 0.05825748
0.04792433 0.07810435 -0.02463931 0.12908679 -0.06773658 0.13583693 0.08036191 0.11729937
-0.054867733 -0.03222974 -0.01284393 0.062020343 0.040215928 0.07047547 0.07061998 -0.028877957
-0.039907888 0.08089117 -0.008649128 -0.055173576 0.041480757 -0.06763888 -0.14039324 -0.07217709
0.13574122 -0.1288471 -0.09521832 -0.17637768 -0.0105946725 -0.10207782 0.11368357 -0.112494394
-0.07404404 -0.01680335 -0.013805337 0.09661377 0.14318873 0.0036112391 -0.16072245 -0.11417866
-0.07030686 0.021553854 0.06653782 0.036471475 0.08653515 0.051701423 -0.07887889 0.0012956503
0.004205218 -0.06939801 0.012283834 -0.03746828 -0.09502773 0.06379606 0.012970618 -0.15688665
0.10570206 -0.084968835 0.05086959 0.166238 0.015671004 0.025873996 0.043468416 0.10692942
-0.013729989 -0.134127 0.024813924 0.10474433 -0.003367521 0.066021286 0.021260614 0.06080771
-0.018794313 -0.03313875 -0.0890742 -0.14422117 0.021080296 0.044563703 0.106646515 -0.011052647
0.038049918 0.06471592 -0.104153536 -0.12783489 -0.1331386 -0.010203302 -0.05220559 -0.0059880954
-0.026750125 0.065675475 0.053411644 0.13357036 0.14221849 -0.09048986 -0.045804206 0.044674546
0.10308944 -0.09579617 -0.025882268 -0.048319627 0.07482611 -0.038668536 -0.012345182 0.07602057
0.088641435 0.005540138 -0.1249678 0.09918636 -0.077160105 -0.08823277 -0.10710592 -0.03290353
-0.074465804 -0.09106528 -0.13052338 -0.025719883 0.07011027 -0.083803736 -0.00927593 -0.012295086
0.04250368 0.12533918 -0.032367226 -0.08710751 -0.110757425 -0.044024374 0.008631298 -0.016536

bias f4 [64]
00000000: 89bd c8bd 87d8 aa3d cfc0 a93d 3f53 16bd
00000010: 8696 a3bd d485 3abb 8dcb 8fbc 9f9e 963d
00000020: 0222 8dbc 90d0 6ebc b84b 03be 13d7 703d
00000030: e5d2 8a3c d523 4a3d 8a13 b73d 4807 753d
00000040: 12af 5abc ce07 b6bc 52b9 9abd cb58 ce3d
00000050: 1fc9 e13d 8bfd 50bc 6e1a e73d 73d4 0a3e
00000060: 0a49 823d 7eb2 8a3d 4c16 893d 885b 3ebb
00000070: aa4e 87bb 3e64 003e 6189 25bd bccb a93c
00000080: 7496 b0bc 91f1 ac3b 8494 af3d f9a5 cb3d
00000090: e5e5 4f3d 82bf 913d 1c9a 7abc 0590 f93d
000000a0: 5915 903d 2e0b 053e 9633 bbbd 90d9 3ebd
000000b0: 3886 a9bd 7d97 933c af2d 993d 46b0 d1bd
000000c0: 9905 333c f150 83bc 06c2 08be ac37 a63b
000000d0: 3714 e53a 3c91 a2bd 6346 c7bd ea10 a83d
000000e0: 1874 a7bc 780e 45bd 54a6 8bbc 5093 a13b
000000f0: e39b a7bc 8fa4 a8bd ef72 8b3d d412 25bc
-0.09801776 0.083420806 0.082887284 -0.036700483 -0.079876944 -0.0028461115 -0.017553115 0.07354473
-0.01722813 -0.014576092 -0.12821853 0.05879886 0.016946265 0.04935058 0.08939274 0.059821397
-0.013347404 -0.022220518 -0.07554878 0.1007553 0.11024689 -0.012755762 0.11284338 0.13557605
0.06361587 0.06772326 0.06693706 -0.0029046256 -0.0041292505 0.1253824 -0.040414218 0.020727031
-0.021556117 0.0052778204 0.08573249 0.09943766 0.050756354 0.07116605 -0.015295532 0.12185673
0.07035322 0.12992546 -0.091406986 -0.046594203 -0.08277553 0.018016571 0.074794166 -0.102386996
0.010926628 -0.016029807 -0.13355264 0.0050725546 0.0017477338 -0.079378575 -0.09730222 0.08206351
-0.0204411 -0.0481095 -0.017047085 0.004930891 -0.020460075 -0.08234512 0.06809031 -0.01007529

weight f4 [6, 64]
00000000: fb80 30be 25fc 82bd 23f2 0f3d 7c10 d3bd
00000010: 11ef 933c 9c1c a43d eb7b 0cbe a25e c33c
00000020: 5a9b ae3d 5dab 25be f6b9 b6bd 384c d6ba
00000030: 76a1 07bc b759 7e3b 873e 973d d458 a6bd
00000040: ed2e 413b 119e 0e3e 2bed e5bd e7a1 e43c
00000050: ca31 e53d d5e4 91bd 29af 00be d011 dfbd
00000060: 1d1d fbbd d95a 04be 945f 59bc c408 e5bd
00000070: 710a 36bd 78ee 403c 20a5 d73d d535 183e
00000080: a4f8 ef3d 093b 703d 2acd 8b3d 4631 15bd
00000090: cced dfbd 57ea 003e 235c 8abc de46 7d3d
000000a0: 3cd5 a73d e46d 2bbd 8250 023e 3820 673c
000000b0: 67bb 2ebd ff71 c93d 83cd 9e3c c202 53bc
000000c0: ec4f 5d3d e463 0f3e 1d03 49bb 2885 b23d
000000d0: 0248 da3d 805f 79bd bb04 ea3d dd24 cabd
000000e0: 2f85 1abd d904 713b 4ea7 3dbd 49fd 5abd
000000f0: 2fa9 063e 416f e4bd 146c d53d a3ae 0fbe
00000100: 3f96 3b3d 67f0 ddbd a5e9 d2bd 854b 253d
00000110: 1a93 c63d 4dbd 74bd 0201 9e3d 8069 37bd
00000120: 74fe 293d 01dc 8fbd a49f a93b 08e9 ad3d
00000130: dd93 06be 62c3 c5bd 90b5 60bd 83a6 5e3c
00000140: 34fb 2f3e 0c77 313e be52 bb3d 39ae abbd
00000150: 248a 173e 2b6b 803d 1381 bd3b 6d6e 22bd
00000160: 48b3 ebbd 0548 3dbb e87d a03b f8d3 a6bd
00000170: 737f 3bbe 898a c03d bdb0 5a3d 1489 873d
00000180: 68e4 1a3c 20c2 c93d 2245 f0bd 2a86 febc
00000190: ac09 c93d 4e6d 633d cd13 31be 7c3e bebd
000001a0: afa3 0f3e 3e29 ab3c 90c1 273e 7f74 1dbc
000001b0: e972 4fbd a09d 0ebe 1c87 0abd 7fa2 3abd
000001c0: 911d 093e ada6 adbc ae15 a7bd 9ea6 e13c
000001d0: ca77 c1bd 0bb9 80bd 0fcf 0d3e f751 443d
000001e0: 63c1 3abe 38ac ac3c f136 3abd 0af1 1b3e
000001f0: c52d 10be 209f b13d 5985 0ebe 0631 4fbe
00000200: c1d4 4cbd 1490 1bbe 51ac 64bd 5222 c73d
00000210: 6e61 2abd 7890 1abe b6fb 1bbb 77ba f9bd
00000220: eeb5 863d 5fef f9bc 8aad e83d 5428 a33d
00000230: 6488 993c 82b7 273d cfa2 f43d 73b2 0abe
00000240: 1b6c 54bd 5c2f f03d 6f74 0a3d a36e ec3d
00000250: ff32 773d bb7f 233d e138 4f3d f7ca fa3d
00000260: 1dd7 923c 6492 f0bd 8aa1 f13b 1526 d9bd
00000270: 0a1e 8abc 2ecb ab3d c11c 4bbd 67e3 ef3d
00000280: 441b 0d3e d0c0 27b9 dba1 bcbd 592a 953a
00000290: 6832 e43d dbf5 193d ed00 9c3d d352 84ba
000002a0: 613d 7abb 4f0c 773d 903e da3d 01ef d63d
000002b0: 4db2 4bbd c23f b8bd e00c 2d3d b345 043d
000002c0: 12d7 013e 6b69 c5bd c2e7 7bbd 83c2 43bc
000002d0: 874d 6cbd 9106 963d 48c9 cf3d adc2 db3d
000002e0: 8668 19bd fdaa edbd 41fe 27bd 0c6a 743d
000002f0: e87e ddbc 8e31 573d 2bff 2dbd 336e 633d
00000300: a876 bf3d b536 f43d 08c2 813d e579 0bbe
00000310: f02a 37bd 5bc7 c6bd 2364 233d 5155 d13c
00000320: 78d8 173d 4a90 403d 3481 70bd 86b1 f1ba
00000330: d47a 2ebd 519c 083d 50d5 9dbd 68d6 c33c
00000340: e564 f13d 48eb 7b3d 01c1 c5bd e6d5 0d3e
00000350: b597 bbbc 7450 de3d 0cfb d3bc e23a d43d
00000360: 3e57 6e3d 82fc f8b9 d461 8b3d a011 ef3d
00000370: 3ae3 a9bd 6498 fd3c efd4 973d f3b7 1f3c
00000380: 071d 9d3d 3185 173e 924b a7bd 17ee 963d
00000390: fcba efbd 81d9 e13d 1774 bfbd 10db 07bd
000003a0: 9428 743d c903 ccbd c12b 58bc d306 9ebd
000003b0: 2f10 473d 1b4c 6cbc e123 dabd 09a4 0cbd
000003c0: d9cd ba3c 5ef3 8c3d ec71 b1bd af68 acbd
000003d0: 83bf e33c 7e29 f9bd 4e70 7abd 28c6 f9bd
000003e0: dc39 31bd 80e3 cebd ed1d e4bb 957a f53d
000003f0: 8155 4b3d ac23 00be 890b f83d 9893 f4bd
-0.17236702 -0.06395749 0.03514303 -0.103058785 0.018058332 0.08013269 -0.13719146 0.023848835
0.08525725 -0.16178651 -0.08922188 -0.0016349619 -0.008278241 0.0038810798 0.07384973 -0.08122411
0.0029477433 0.13927485 -0.11226877 0.027909232 0.11191137 -0.07123724 -0.12566818 -0.10892069
-0.12261412 -0.1292528 -0.0132674165 -0.111833125 -0.04444355 0.011775605 0.10529542 0.14864285
0.11717346 0.05865005 0.06826241 -0.036423944 -0.10934028 0.12589394 -0.016889637 0.061835162
0.08194968 -0.041852847 0.12726024 0.014106803 -0.04265919 0.09836196 0.019385105 -0.0128790755
0.054031298 0.14002949 -0.0030672022 0.08716804 0.10658266 -0.06088209 0.114266835 -0.09870312
-0.03772467 0.003677657 -0.046302132 -0.053464208 0.13150476 -0.111540325 0.10421005 -0.14031462
0.045797583 -0.10836869 -0.102984704 0.040355224 0.09696026 -0.059750844 0.07715036 -0.044778347
0.04150243 -0.07024384 0.0051765013 0.08491713 -0.13142343 -0.09656407 -0.05486065 0.013589504
0.1718567 0.17330569 0.09146641 -0.0838284 0.1479879 0.06270441 0.005783209 -0.03965609
-0.115088046 -0.0028882038 0.0048978217 -0.081458986 -0.18310337 0.094014235 0.053391207 0.066179425
0.00945387 0.098514795 -0.11731936 -0.031069834 0.09816298 0.055524163 -0.1729271 -0.09289262
0.14027284 0.02089369 0.16382432 -0.009610294 -0.050646696 -0.13927317 -0.033820257 -0.045565125
0.13390185 -0.021197641 -0.08158432 0.02754527 -0.09446676 -0.06285294 0.13848518 0.04792973
-0.18237834 0.021078214 -0.045462552 0.15228668 -0.1407996 0.08672929 -0.13918056 -0.20233545
-0.050007585 -0.1519168 -0.055828396 0.09723343 -0.041596822 -0.15094173 -0.0023801154 -0.121937685
0.06577669 -0.030509649 0.11361225 0.07966676 0.018741794 0.04094649 0.11945116 -0.13544635
-0.05186091 0.11727783 0.033802446 0.1154454 0.060351368 0.039916735 0.050591353 0.12245744
0.01792484 -0.11746672 0.0073739933 -0.10602967 -0.016860027 0.08388363 -0.04958797 0.117132954
0.13779932 -0.0001599819 -0.09210559 0.0011380418 0.11142427 0.03758798 0.07617364 -0.0010095484
-0.0038183557 0.060314473 0.10656464 0.10494805 -0.049730588 -0.08996536 0.042248607 0.032293033
0.12679699 -0.096392475 -0.06150032 -0.011948231 -0.057691123 0.07325471 0.10145813 0.10730491
-0.037453197 -0.11604879 -0.04101396 0.059671447 -0.027038053 0.052537493 -0.042479675 0.055525016
0.09348804 0.11924497 0.06335837 -0.13620718 -0.044718683 -0.09705993 0.03989042 0.025553377
0.037071675 0.047012605 -0.058716968 -0.0018439747 -0.042597607 0.0333522 -0.07706702 0.023905948
0.11786822 0.06150368 -0.09655953 0.13851127 -0.022899488 0.10855189 -0.025876544 0.103627935
0.05818867 -0.0004749038 0.068057686 0.116732836 -0.08295293 0.030956455 0.07413661 0.009748447
0.07671552 0.14796902 -0.08168711 0.07369631 -0.11705586 0.11027814 -0.09348314 -0.0331679
0.05960901 -0.099616595 -0.0131940255 -0.07716145 0.04859942 -0.014422442 -0.106513746 -0.034336124
0.022803234 0.06882356 -0.08664307 -0.08418404 0.02780128 -0.12166117 -0.06114226 -0.121959984
-0.04326807 -0.10101986 -0.0069615752 0.11986271 0.04964209 -0.12513608 0.12111575 -0.11942214

bias f4 [6]
00000000: cfe1 723d 35d1 08be 2353 febd 64b4 d63d
00000010: 6b69 ebbd 9922 af3d
0.05929738 -0.13361056 -0.12418201 0.104836255 -0.11494716 0.08551521

weight f4 [64, 26]
00000000: 0a4e cf3d 8f2c 053e 9a3a 313d 1ffa a93c
00000010: 427d b93d b00f 643d 805a ca3b 848e efbd
00000020: 0314 c13d dacd 183d 0ef6 c93d b3d1 0abe
00000030: d30c 8fbd 33d9 1dbe 033f cf3c 963d 283e
00000040: dffa 7e3d f5a1 5a3e 12f2 e53d 81b9 1bbe
00000050: 1ef8 3d3e bafc 683d 00fb 2a3e 1d33 543d
00000060: d5ac 9d3c 2811 233e b45d 56be a025 903b
00000070: ce42 93bc e8df c2bd 3077 66bd 22ec 883d
00000080: c0f2 27bc 1d5e 6f3d b036 be3d 8282 363e
00000090: f84a 923d 7581 59be afa0 26be 5ed9 3cbe
000000a0: 8a7c 4dbe b8b9 31be 108a 7dbd 4a4c e13d
000000b0: f047 ffbd 9b3e 8d3d 6b2e c8bd 949c 773e
000000c0: 1f13 003e 6adc d13d c9b9 963e 10f8 02be
000000d0: e873 76be d932 cdbd b913 043d cca1 1b3e
000000e0: 5b97 043e 3320 16bd 7c9b 0ebd 7492 e6bd
000000f0: 1c66 473e 77f5 26be a99e ffbd 7943 1d3e
00000100: 2b71 2b3e c22e 6a3d f2ad 90bc 8ea7 47bd
00000110: 28c6 143d d289 81bd 0eb1 4f3e f718 2c3e
00000120: 6e20 c0bd 6758 4f3e 67d1 3fbc 9104 15be
00000130: 9a31 043e b73d 42bc 8b39 253e 30ac 5e3c
00000140: 8999 2ebd 5db5 b9bd 7360 033e cb24 f83d
00000150: 58f7 e13c c851 19bc c15d 6abd 4c69 023d
00000160: c576 523e 7253 003d 1d80 5f3d 169d 17be
00000170: 8d39 1f3d 8441 e4bd 7181 35bc 412a 6ebd
00000180: db6d 5f3e 7e11 023e bb04 b3bd 73a1 c0bd
00000190: ec60 bf3d bc64 763d 5b91 c7bd f618 c93d
000001a0: 6564 d63d aecd e63d 407c 07be fdd2 0ebe
000001b0: eabe ba3d 5231 9d3d 8705 afbd dbb0 043e
000001c0: 8354 5ebd fff0 09be ad98 e2bb fdc3 11be
000001d0: f5bf 87bd b347 39be 0b5b 0a3e a628 463e
000001e0: e295 2fbe f365 b13d ee4b ce3c 442e 5bbd
000001f0: 4b79 9cbd cd69 f6bc cb35 0c3c 2b61 103e
00000200: 4d7b d43d 0589 18bc 1bdc 813e 718a edbd
00000210: d5ef 67bc 0e08 02be 0667 c03d a9a8 f23d
00000220: 3b4c f3bd ce0e 30be b475 83bd f8ea 9dbd
00000230: c06a 5ebd 0ff5 26be 039f f9bd 2587 0c3e
00000240: 9975 f2bd 1754 fb3d b67b 273c c596 3fbd
00000250: 14c9 013d 9c1a 153e 92b1 203d 0947 16bd
00000260: cabb 003e d588 68bb f078 27bd 0323 343e
00000270: 3a62 5abe 2be5 113e 44c0 56bd db34 3dbd
00000280: bb71 e8bd c69f af3d a785 21be 73d8 97bd
00000290: eca8 a03d a3d1 55bd 11af 783b 3395 463e
000002a0: 26d2 3bbe 5d25 ecbd 6103 00be ad2c 2c3e
000002b0: 630f e73c 3571 20be 2dbf f8bd 7730 0f3e
000002c0: 46cd 5a3e 4830 c8bd f6ce a83d 61c1 bdbc
000002d0: f3f5 0b3e 34c4 bebd ef3c 593e f983 483e
000002e0: 23fa fd3d 5700 4ebc 581e d23c 9d8c 3f3e
000002f0: 348f e7bd 33b3 bbbd 366c 4abe 09f3 033e
00000300: cd0d d3bd 2b37 153e 4995 67bd ec0c 89bd
00000310: c817 d93d 563f 223c 3288 0fbe d6b4 e9bb
00000320: 369b c5bd de99 fdbd ce40 f5bd 7eb4 9abc
00000330: f263 8ebc 7454 aabd d041 f3bc 4ca0 cebd
00000340: da2c 61bd 46f0 893d ec44 e9bd 68c5 c1bc
00000350: c359 103e e27f 803e 4d90 44be ae3d 0f3e
00000360: 6b39 f33d d57f 10be 6df7 20be 1654 3bbe
00000370: 5cf2 2cbd 7360 0abc a8c7 633c 9ec9 893d
00000380: 107e 633d 3513 25be 962d 113e f36f 323e
00000390: 1b12 483d 3ba7 e5bc 187e 13be 70cd 20bd
000003a0: 18ac 63be 6142 1f3e 5a2c 69be efeb 2a3e
000003b0: c340 3b3e ef09 fbbd 8632 33be 981a 3f3c
000003c0: 0822 1abe 6a4b 4abe 4e97 bbbd b75d f73d
000003d0: 816c d7bd efc5 22bd ca20 4dbd 1d39 273e
000003e0: 5f4e 923d 1891 9b3d 4fd9 f3bc 2aac ccbd
000003f0: 475f 8f3d 1f30 9d3d 670f 1f3e 5c7e 1dbe
0.10122307 0.13005279 0.043268777 0.02074915 0.09057094 0.055679023 0.006175339 -0.116971046
0.09427645 0.03730569 0.09861384 -0.13556556 -0.06984868 -0.15414886 0.025298601 0.16429743
0.062250968 0.21350844 0.11227812 -0.15207483 0.1855168 0.056881644 0.16697311 0.051806558
0.019247452 0.15924513 -0.20934182 0.0043990165 -0.01797619 -0.09515363 -0.05626601 0.06685664
-0.010250747 0.058439363 0.092877746 0.17823222 0.071432054 -0.2124079 -0.16272233 -0.18442294
-0.20067039 -0.17356002 -0.061899245 0.11000879 -0.12464893 0.06896707 -0.097744785 0.24180824
0.12507294 0.10247119 0.29438618 -0.12789941 -0.24067652 -0.10019464 0.03224537 0.1519844
0.12948363 -0.0366518 -0.03481625 -0.112584025 0.19472545 -0.16304575 -0.12481434 0.1535777
0.16742389 0.057173498 -0.017661069 -0.048743777 0.03632179 -0.06325115 0.20282385 0.16806398
-0.093811855 0.20248567 -0.01170764 -0.14552523 0.12909546 -0.011855534 0.16135232 0.013590857
-0.04262689 -0.090677954 0.12829761 0.12116393 0.027583763 -0.009357877 -0.057218317 0.0318387
0.2055312 0.03132958 0.054565538 -0.14806017 0.038873244 -0.111453086 -0.0110782245 -0.058145765
0.2181925 0.12701985 -0.08741137 -0.09405794 0.09344658 0.06015466 -0.09744521 0.09819214
0.104683675 0.11269699 -0.13230991 -0.13947673 0.09118445 0.07675423 -0.08545976 0.1295809
-0.054279815 -0.13470839 -0.006915173 -0.1423492 -0.0662841 -0.18093757 0.13511293 0.19351444
-0.1714702 0.086620234 0.02518269 -0.05351092 -0.07640322 -0.030079747 0.008557747 0.14099567
0.1037508 -0.009310012 0.2536324 -0.11598671 -0.0141563015 -0.12698385 0.0939465 0.118485756
-0.11879774 -0.17193148 -0.064189345 -0.07710832 -0.054301023 -0.1630442 -0.12188532 0.13723429
-0.11838836 0.12271898 0.010222366 -0.046774644 0.031685904 0.14560932 0.039231844 -0.03668884
0.12571636 -0.003548195 -0.04088682 0.17591481 -0.21326533 0.14247577 -0.052429453 -0.046192985
-0.11349817 0.08575396 -0.1577364 -0.07414331 0.07844719 -0.05220188 0.0037946145 0.19392852
-0.18341884 -0.11530564 -0.12501289 0.16813917 0.02820558 -0.15668185 -0.12145839 0.13983332
0.21367368 -0.09774834 0.082426 -0.0231635 0.13668041 -0.093147665 0.2121465 0.19581594
0.124012254 -0.012573323 0.025649235 0.18705983 -0.11306611 -0.09165039 -0.19767842 0.1288568
-0.10305367 0.14571826 -0.056538854 -0.06691918 0.10600239 0.009902796 -0.14016798 -0.007132153
-0.09648745 -0.123828635 -0.11975251 -0.018884894 -0.017381642 -0.083168894 -0.029694468 -0.10089168
-0.054974414 0.06735282 -0.11390099 -0.023653701 0.14096741 0.25097567 -0.19195671 0.13988373
0.11876186 -0.14111264 -0.15719385 -0.18293795 -0.04222332 -0.008445847 0.013902582 0.067279086
0.055540144 -0.16120608 0.14177546 0.17425518 0.04884539 -0.028033843 -0.1440357 -0.03925842
-0.22233617 0.15552665 -0.22770825 0.16691564 0.18286423 -0.12257754 -0.17499742 0.011664055
-0.15052044 -0.1975533 -0.091597185 0.120784216 -0.10518742 -0.039739545 -0.0500801 0.1633038
0.07143854 0.07596034 -0.029766707 -0.09993775 0.070005946 0.07675194 0.1553322 -0.15380234

bias f4 [64]
00000000: ea87 bb3d 98e1 9d3d 8689 9dbc 4a34 093e
00000010: 0585 a43d 755a af3d 15de ffbc 9479 2f3c
00000020: 3456 c0bd e02c eebd dd79 5f3d ae64 293e
00000030: a6c0 e03d 2864 7abd 7b13 c83d e555 f4bc
00000040: d979 423e a37f 3fbe aa49 c23c bef6 39be
00000050: c2f9 9b3d 41f0 0c3e 3ff3 243e 4b14 07bd
00000060: 7084 be3b 4486 4b3d 6bf3 70bd 72c0 393e
00000070: 74ce 093e 40c5 a83d 4bd0 8fbd 41fb 1d3e
00000080: 0c18 c4bd bf0c 1ebe ca1a 67bd 074c 1cbc
00000090: 408a e23d 7d5a 913d 125f 9e3d 1d5b b2bd
000000a0: b3e6 2e3e e23c 403e 0565 39be cb36 023e
000000b0: 6606 e93c f24e 953d 9f60 903d 605f e93d
000000c0: 2d31 603c 199c a4bd 2970 2abd 196d 96bd
000000d0: dc1d 273c 2c1f 02be 1f37 ed3d 73c1 06be
000000e0: b18d 213e 8ae8 24be e8be 233e a6b0 95bb
000000f0: 4942 26be b9ee 303d 0b41 15be 33b3 24be
0.09156783 0.07709044 -0.019230615 0.13398853 0.08033184 0.08562175 -0.031233827 0.010710139
-0.09391442 -0.11629653 0.054559577 0.16542313 0.10974245 -0.061130673 0.097693406 -0.029826114
0.18991794 -0.18701033 0.023716766 -0.18160531 0.07615997 0.13763525 0.16108416 -0.032978337
0.0058141276 0.049688593 -0.05882589 0.18139818 0.13457662 0.082407475 -0.070221506 0.15427877
-0.09574899 -0.1543455 -0.056422032 -0.009539611 0.11061525 0.070973374 0.07732977 -0.08708785
0.17080192 0.18773225 -0.18104942 0.12716214 0.028445434 0.07290448 0.07049679 0.113951445
0.013683599 -0.08037586 -0.04161087 -0.073450275 0.01019999 -0.12707204 0.11582779 -0.13159733
0.15776707 -0.16104332 0.15990794 -0.0045681773 -0.16236223 0.043196414 -0.14575593 -0.16083984

weight f4 [64, 64]
00000000: 8874 9d3c 6a73 2a3c f2b8 2c3d 8f45 893d
00000010: 34bf edbd 555e e43d 84ee 98bd 7a9e 12bd
00000020: 5680 813d 39da 96bd 6b4f 76bd 55dc c5bc
00000030: c05b e93c f162 b73c c5c2 0a3e 8ba7 7e3d
00000040: 595f 22be 4031 4cbd 8377 da3c 6412 063d
00000050: 62f5 67bd 542d 373d 1856 ad3d 4332 5cbd
00000060: f723 3fbd 686c f33b 8ead 743d 1ca2 92bc
00000070: 742c 523d f874 d73c 6855 f3bd bb45 19be
00000080: 817f 90ba 332c 6c3d ca7d cbbd 951a 83bd
00000090: d69d bbbd 6688 e23c b79b b63d 5aa0 c33d
000000a0: fcc4 cbbd 1a7a 773d 25cb e3bc 74f7 e9bd
000000b0: 8b22 8c3d f9a2 f43d 8c26 a13b 3b99 32bc
000000c0: 2918 473c 50b8 7d3d 31f4 a83d 81d3 5cbd
000000d0: 86de 24bc 6752 963c 9c5c 263b 9468 1d3d
000000e0: c94d 553d 5756 f43c 1475 7d3d cde9 97bd
000000f0: 181b c53d d6e5 12bd 0397 01be 19af 963d
00000100: 33b3 80bd b7ab a1bd 46c9 4b3b 77d5 b93d
00000110: a889 c2bd 47d6 a83c c9c0 dabd 227b 163d
00000120: 56da 953d ffbf 1ebd a058 dfbd f540 b4bd
00000130: 9d05 cdbd 4d6a 94bc 8b25 0cbd a101 8b3d
00000140: cc7d 40bc efc4 80bd dace 0f3d 5c86 a7bd
00000150: 14e7 913d a4bc a1bb a376 173e 3892 ed3d
00000160: 6bc3 c2bd 9f0c 6e3d 2abe bdbd 0bbb ffbd
00000170: a28f 993d ea4b a4bd 8374 c5bd d968 e9bd
00000180: 7798 a0bd 70d3 c6bd 0e72 1c3b b56f debd
00000190: 3df1 8bbb f7c1 af3d 3a1c d4bd 169f 983d
000001a0: 328b fd3d 4d17 63bd 2355 ca3b 7063 f5bd
000001b0: c52e d83d b46f eb3d decf 8a3b d352 cf3d
000001c0: 7304 e9bd d7f3 a2bd 4cbc 113e b458 f1bd
000001d0: d039 f7bc c5df a1bd cb1d 0abe 80a3 013d
000001e0: 01b3 fbbc a5c4 5a3c baa4 45bd fde2 063d
000001f0: baa1 923b 24b3 00be f30d 633d e450 8c3d
00000200: 5711 98bd dc1f 863d fc10 1cbd f70e 8d3d
00000210: 9edb 75bd 2798 973d 7b89 bebd 3812 b3bd
00000220: 9d2a 4b3d 80ab 943c b8ef 68bd 7a51 bc3d
00000230: caa3 6e3a df0c b93d 9b49 37bd 70e2 453d
00000240: c869 fb38 924e da3d 1ce2 113e 1524 d53d
00000250: a730 d33d 5965 68bd 8a4b a9bd 0d70 283d
00000260: e843 ccbc 0069 54bd 3603 b0bd a562 91bc
00000270: 5de9 b13b 6f3a 9d3d c08d 4c3d 62b0 71bc
00000280: f2b4 a13d 2b38 88ba 0d06 ad3d e4d1 ecbd
00000290: 7b6f d43c 73df 21bd e372 8e3d 1bc7 20bd
000002a0: b73a babd cbe0 5bbd 83c2 af3c d287 b23d
000002b0: 6b6f 8b3d cd6b c2bd f144 f0bc 2cc5 f9bc
000002c0: 03b8 0bbc 00f5 793d db34 2a3b c387 e63d
000002d0: edb6 2cbc 69f3 743d 97f4 55bd 26b8 aa3d
000002e0: 8daf 9e3d 7421 38bc bdff dd39 0112 3c3d
000002f0: bd17 cc3b 5309 a1bd 4398 6fbd c1ba b1bd
00000300: 9566 353c 6b08 533d 6c88 b2bd 066a 913d
00000310: 70cd c9bd 38e7 4a3d 162b d6bd 9948 13bd
00000320: 4b67 94ba c1fb c7bb 7e99 8d3d fd23 60bd
00000330: 73bc 803d 6640 dc3c f1ae 9e3b 1477 0dbe
00000340: fa1d 11bd c016 83bd 82af bcbc 4acb 883c
00000350: 3185 d73d 3e40 ac3c 00d3 edbd f09d 10be
00000360: 0df7 093e f8bb 203d 7552 fcbd 1e6f d5bc
00000370: b9fa 5c3d 1445 233c 16d9 bc3d ee2c 273c
00000380: 28c4 b13c 56fb d43d 602e c3bd 3471 973c
00000390: c3a6 05be b8ac babd dd24 dabd c31a 853d
000003a0: c71a b9bc 80ef a13d 922d ebbb de3a 153d
000003b0: 18f7 c5bd dcf8 6abd 846a 6bbd f77c efbd
000003c0: 271e 653d e034 823d e377 8dbd a0ea b4bd
000003d0: bb43 41bd 8986 dfbd b19f 86bd 1821 3bbd
000003e0: bea1 8dbb ead9 2fbd a53d dabd dac8 8f3d
000003f0: c86b ea3d 513a e63b b0bc 843b 08af 41bd
0.019220605 0.010403493 0.042168565 0.067027204 -0.11608735 0.11150805 -0.07467368 -0.035795666
0.06323306 -0.073658414 -0.060134333 -0.024152914 0.028486133 0.022386046 0.13550861 0.0621715
-0.15856685 -0.049851656 0.026668316 0.032732382 -0.0566305 0.044720963 0.08463687 -0.05375887
-0.046665158 0.0074286945 0.059735827 -0.017899565 0.051311925 0.026300892 -0.11881524 -0.14968006
-0.0011024327 0.05765934 -0.09936102 -0.064015545 -0.09160964 0.02765293 0.08916419 0.09552069
-0.09949681 0.06041918 -0.027806828 -0.11424151 0.06842526 0.11945147 0.004917925 -0.010900791
0.012151756 0.061943352 0.08249701 -0.053912643 -0.010062819 0.01834984 0.002538479 0.03842981
0.052076135 0.029826326 0.061879233 -0.07417641 0.09624308 -0.03586372 -0.12655263 0.07357616
-0.062841795 -0.0789408 0.003109531 0.09073918 -0.09498912 0.020609988 -0.10681302 0.036738522
0.07317035 -0.03875732 -0.10905576 -0.08801452 -0.10010836 -0.018117094 -0.03421549 0.0678742
-0.011748742 -0.06287562 0.03510938 -0.08179924 0.07124153 -0.004935818 0.1479135 0.11600155
-0.09509929 0.058117505 -0.092647865 -0.124868475 0.07498099 -0.08022292 -0.096413635 -0.11396951
-0.0784158 -0.09708297 0.0023871693 -0.1086115 -0.004270701 0.08581918 -0.10356946 0.07452218
0.12380065 -0.055442143 0.0061747 -0.11981857 0.105557956 0.11495915 0.0042362055 0.10123219
-0.11377802 -0.07956665 0.14231986 -0.11784497 -0.030178934 -0.07904009 -0.13487928 0.031650066
-0.030725004 0.013352548 -0.0482528 0.032931317 0.0044748457 -0.12568337 0.055433225 0.06851366
-0.07425182 0.065490454 -0.038102135 0.0688762 -0.060023896 0.07402068 -0.09303566 -0.08743709
0.049601186 0.018148184 -0.05686924 0.09195228 0.0009103386 0.09035658 -0.04474793 0.04831165
0.00011988316 0.10659517 0.1424641 0.10407273 0.10312014 -0.056737278 -0.08266361 0.041122485
-0.024934724 -0.05185795 -0.085943624 -0.017747233 0.0054294304 0.07677161 0.04993987 -0.014751526
0.07895841 -0.0010392716 0.0844842 -0.11563471 0.025932064 -0.03951974 0.06955507 -0.03925238
-0.0909323 -0.053681176 0.021455055 0.08717312 0.06808361 -0.094932176 -0.029329749 -0.030489527
-0.0085277585 0.061024666 0.0025971446 0.11256363 -0.01054166 0.059802447 -0.052235212 0.08335905
0.077483274 -0.011238445 0.00042342945 0.045915607 0.0062284158 -0.078631066 -0.058494817 -0.086781986
0.011071821 0.0515217 -0.08717427 0.071003005 -0.09853637 0.049536914 -0.10457437 -0.035957906
-0.0011322288 -0.0061030095 0.06914042 -0.05472182 0.06285944 0.026886176 0.004842632 -0.13814956
-0.03542898 -0.064008236 -0.023032907 0.016698498 0.10523451 0.021026727 -0.11612511 -0.14122748
0.13473149 0.03924176 -0.12320415 -0.026053961 0.053950045 0.0099652 0.09221093 0.010203583
0.02169998 0.10399501 -0.0953033 0.018486597 -0.13051896 -0.09114975 -0.10651562 0.06499245
-0.022595776 0.07907009 -0.0071770633 0.036433093 -0.0966627 -0.057366237 -0.057474628 -0.11693757
0.05593696 0.06357741 -0.06907632 -0.08833814 -0.047183733 -0.109143324 -0.065734275 -0.045685858
-0.0043222597 -0.04293243 -0.10656289 0.07020731 0.11446339 0.007025995 0.0040508136 -0.047286063

bias f4 [64]
00000000: be14 12bd 23c4 043e 81cb 7c3d 874d c9bd
00000010: 7d47 af3d 07ba dbbd e581 143b f465 21bd
00000020: a816 ddbd 9613 ec3d a1c6 9f3d a318 ad3d
00000030: 0163 57bc 9588 5cbd 050c 15bd f3d4 ad3d
00000040: 8fcc e23d 55b6 c23d 9a7d 14bd bea5 7e3d
00000050: 9d96 f1bc b787 3d3d 4b73 fc3c 77cb dfbd
00000060: 70c7 d13d 40ef 98bd b65b 733a a29f 86bd
00000070: f0b7 23bd f202 ad3d 960d cf3d e871 e53d
00000080: d075 e6bd dd05 c13d 620d b0bd 242a 32bc
00000090: d842 e53d 3df8 9e3c a410 0b3d 1c7d 843c
000000a0: ff59 c2bd 4ad6 84bd 8704 e9bc 9346 5dbc
000000b0: 5d1f 373c 5e8a c1bd a53e 983d e9af 6a3b
000000c0: 6fb8 873d 0a2b e03c da85 dfbd 2058 173c
000000d0: 8509 03be 26ef ad3c 3378 cc3d fd92 1d3c
000000e0: e64a 7c3d 104a 3d3d 5709 13bd 56e2 0e3c
000000f0: f7ea bb3c df57 ab3d 04c6 7a3d aa3c f03d
-0.035664313 0.12965445 0.061717514 -0.0982924 0.08558557 -0.10728841 0.002266043 -0.03940387
-0.10795337 0.11527173 0.07801557 0.08451965 -0.013146163 -0.053841192 -0.036388416 0.084878825
0.11074173 0.09507433 -0.036252595 0.062169783 -0.029490763 0.046272006 0.030816695 -0.1092748
0.10243118 -0.07467508 0.00092833804 -0.06573416 -0.03997034 0.084478274 0.10110013 0.112033665
-0.1125294 0.094249465 -0.085963026 -0.010874305 0.1119439 0.019405479 0.033951417 0.016172938
-0.09489822 -0.06486185 -0.028444542 -0.013505596 0.011176911 -0.094502196 0.074338235 0.0035810417
0.06626975 0.027364273 -0.10914202 0.009237319 -0.127966 0.021232199 0.09983864 0.009617564
0.061594866 0.04621321 -0.03589758 0.008720955 0.022939188 0.083663695 0.061224 0.11730321

weight f4 [1, 64]
00000000: c483 81bd b863 81bd 18a9 4cbc 33e5 b33d
00000010: adad 67bd 07ae 8f3d 3b85 1fbd 7078 a0bd
00000020: 0ba3 c5bc 1bd9 3ebb 8d29 3abc 751b ebbd
00000030: 126b 93bd 738f fa3c 2e2b 2c3c 049f a3bc
00000040: d2cc 88bd 1108 8c3d e6a3 523d 3181 073c
00000050: 0751 ba3d d388 f4bd 9a96 47bd ae80 253d
00000060: ea41 a3bd 5fba 473d cd09 19bd af74 e0bd
00000070: 4795 88bb c637 2a3d 14b0 27bd 8aa5 c1bc
00000080: 422f da3c a18e ef3d c69d 993a 6efd 603b
00000090: e9c8 f5bc d451 a6bc 01f8 303d ad9d df3d
000000a0: 2747 36bd 947c a83d fbb7 94bd 11fa 813c
000000b0: 9a70 f8bd 1ba5 9b3d 1ff9 503d 3167 5e3d
000000c0: abce 81bc 09da 293d 47df c2bb 138e f43b
000000d0: 8828 953d a216 ea3d 95b4 adbc 37dc b63c
000000e0: 90c3 93bd 06c1 2e3d 2012 8fbc 5a04 8c3c
000000f0: 0504 4ebd 3a50 653d 45f3 eabd 2bfa 19bd
-0.063239604 -0.06317848 -0.012491487 0.08783951 -0.056562115 0.07015615 -0.038945418 -0.07835472
-0.024125597 -0.0029121104 -0.011362446 -0.114798464 -0.071981564 0.03058598 0.010508342 -0.019973285
-0.066796914 0.06837476 0.051425837 0.008270548 0.09097486 -0.1194016 -0.04872761 0.04040592
-0.079715565 0.04876172 -0.037362862 -0.10959756 -0.004168186 0.041557096 -0.040939406 -0.023638505
0.026633862 0.11697126 0.0011719994 0.0034330743 -0.030003028 -0.02030269 0.043205265 0.10918746
-0.04450145 0.082268864 -0.07261654 0.015866311 -0.12130852 0.07599851 0.05101883 0.05429763
-0.015845617 0.0414677 -0.005947027 0.0074632256 0.07283121 0.11430098 -0.021204272 0.022321803
-0.07215035 0.04266455 -0.017464697 0.017091919 -0.050296802 0.055984713 -0.11472181 -0.037592094
