HW2/BEST_STEP_1_138.pt.pt (torch_old, 57198 bytes, 12 tensors)

log_std f4 [6]
000000 c6 a2 1c bf 13 e0 1e bf 51 5d 1d bf d7 83 06 bf
       -0.6118587 -0.6206066 -0.61470515 -0.5254492
000010 5e 7a 1f bf f0 50 1d bf
       -0.6229609 -0.61451626

weight f4 [64, 26]
000000 42 ff 31 bd ee 8c 1e be f0 31 69 3d 58 3d 3b be
       -0.043456323 -0.15483448 0.05693239 -0.1828512
000010 80 46 04 bb c1 6e 12 be 24 80 10 3d d2 f7 28 3e
       -0.0020183623 -0.14300062 0.035278454 0.16500786
000020 8a 68 22 be b1 3a 11 bd 08 c1 7d bc c7 92 3b 3e
       -0.15860191 -0.035456363 -0.015487917 0.1831771
000030 2e 61 75 3d e3 0a 52 bd 24 ba 3d 3e 72 bf 57 3d
       0.05990713 -0.051279914 0.18528038 0.05267281
000040 bf e8 b9 3d 9b 3b 1d be 73 21 2f be 43 1b 8e 3d
       0.09077596 -0.15354769 -0.17102604 0.069387935
000050 f4 47 12 be 7a 01 29 3d b5 c7 16 3e 77 f3 a2 bb
       -0.1428526 0.041261174 0.1472462 -0.004972871
000060 da 88 79 3b 31 74 a9 3c 60 5d 24 be ce 6d d0 3d
       0.0038075955 0.020685287 -0.16051245 0.101771936
000070 67 7a 7b bd 46 ed ef bd 7a ed a1 3d e4 33 63 3e
       -0.06139603 -0.11715178 0.07906623 0.22187763
000080 f8 dd f9 3c 48 e9 40 be 86 b7 ac 3d 6b 5c 16 be
       0.03050135 -0.1883899 0.08433442 -0.14683692
000090 36 ef b9 3d 1c c0 4c bd 0e 98 eb 3d 75 30 11 ba
       0.09078829 -0.049987897 0.115036115 -0.00055385317
0000a0 73 cc 51 be 4d 6a cf 3d 28 22 4e be 58 94 b6 3d
       -0.20488147 0.10127697 -0.20130217 0.08915013
0000b0 ee 4f 08 3e 04 20 b0 bd 44 6c be 3d c2 cc 36 3e
       0.13311741 -0.085998565 0.09297994 0.17851546
0000c0 d5 49 a8 3d 36 48 9e 3d fe f5 5c 3e 53 5f 08 3e
       0.08217207 0.07728617 0.21578214 0.13317613
0000d0 70 28 96 3d 77 7c fd bd fc 2a fd 3d bc 17 65 be
       0.073319316 -0.123772554 0.12361714 -0.22372335
0000e0 a9 d5 1f 3e 3c 1d c6 bb 47 05 14 3e d6 3b cf bd
       0.15608849 -0.0060459655 0.14455138 -0.10118835
0000f0 97 0d 2f 3c cf 4a 49 3e ac f8 78 bc 6f db ba 3d
       0.010684392 0.19657443 -0.015196007 0.09123885
000100 72 b6 1f 3d 38 a1 1a 3e c7 5b e6 bd be 05 bd bd
       0.038992353 0.15100563 -0.11247974 -0.09229611
000110 6a 21 3f 3d 1e 6a d6 3d d5 c9 47 bd 00 2e 2a 3c
       0.046662726 0.10469459 -0.048776466 0.010386944
000120 ec c8 32 bd 69 d2 33 3e a8 79 2a be 7b 9e d5 bc
       -0.043648645 0.17560734 -0.1664797 -0.026076546
000130 9a 1f a2 3b e1 db 97 3c df e6 4c bd fc 36 19 bd
       0.004947615 0.018537464 -0.050024863 -0.037405953
000140 ec be ae bd 26 86 fd bd ed e0 0e 3e 1e 39 0d be
       -0.08532509 -0.123791024 0.1395299 -0.1379132
000150 10 b0 cc 3c ad bc 85 3c e3 20 2e bd 95 fc 0d be
       0.024986297 0.01632532 -0.042511832 -0.13865884
000160 d1 9b 4e be 27 04 e6 bd 7c db 18 3e d8 13 dd 3d
       -0.20176627 -0.11231261 0.14927477 0.107948005
000170 89 08 2d be 16 b5 8b bd a1 e5 20 be 15 78 c7 bd
       -0.16897787 -0.06821649 -0.15712596 -0.09739701
000180 3f 43 21 be 6c 5d 57 be bd fe 3d 3e 23 dd 16 3e
       -0.15748309 -0.21031731 0.18554206 0.14732794
000190 29 4a 8a bd 4f 19 a7 bd 43 ef 78 3e 25 4d f9 3d
       -0.06752426 -0.08159124 0.24310021 0.12172917
0001a0 9d 56 b4 bc c8 c4 2a bd f3 7e 96 bd a9 15 3e be
       -0.022013957 -0.04169157 -0.073484324 -0.1856295
0001b0 1f 78 40 be 70 22 95 3b 8c 59 32 bd 3a 06 b7 3d
       -0.18795823 0.0045512244 -0.04354243 0.089367345
0001c0 96 10 6b bd 16 7e cb bd 59 71 1b 3d 94 b6 de bd
       -0.057388864 -0.09936158 0.037949894 -0.10874668
0001d0 9a b4 a5 3c cb e5 cf 3c 77 a6 95 bc 91 01 09 be
       0.02022772 0.025378129 -0.018267853 -0.13379504
0001e0 25 8e 27 be cc e2 2c bd 1a 9d 56 3d 31 75 d8 3d
       -0.16362818 -0.042208478 0.052395917 0.105692275
0001f0 4a 18 0c 3e 6a 2a ce 3d 37 0c 6a be c7 97 3a be
       0.1368114 0.100666836 -0.22856222 -0.18221961
000200 b9 99 c5 3d fc b7 25 be 28 19 4a 3d f6 cb ba 3d
       0.09648461 -0.16183466 0.049340397 0.09120934
000210 25 9c 0c 3e 38 4b 8a be a3 7f 15 3e 68 d9 7f 3d
       0.1373144 -0.27010512 0.14599471 0.062463194
000220 03 cf 1b 3e 63 40 89 3c 8e c5 83 be fc 1a 57 be
       0.15215687 0.016754335 -0.2573666 -0.21006387
000230 9b 5d 46 be 1a a7 bb bd 4d 57 3a be 95 95 76 3d
       -0.19371645 -0.091627315 -0.18197365 0.060201246
000240 1d 20 1d be 8f 65 1f be fe 14 18 be 93 c5 15 be
       -0.15344281 -0.15566085 -0.14851758 -0.1462615
000250 2d e4 5c 3d fe 74 39 3d 78 04 3e be 2a 92 92 bd
       0.053928543 0.045277588 -0.18556392 -0.07156785
000260 c5 71 8d 3d 5a d6 9d bd 8f a9 89 3e 4f b9 ee bd
       0.069064654 -0.077069 0.26887175 -0.116564386
000270 10 ae 1d 3e 9e 40 bd 3d 74 1f d9 3a 6d f1 5e 3d
       0.15398431 0.092408404 0.001656516 0.05442946
000280 54 be 1a 3d 0d a6 9b 3d 14 71 3b bd 23 19 be bd
       0.037779167 0.07600031 -0.045762137 -0.09282138
000290 a1 72 0d 3d 3d c0 03 3e 62 71 37 be 47 e6 30 3e
       0.034533147 0.12866302 -0.17914346 0.17275344
0002a0 cd 21 c3 bd 1c c3 05 3e 30 6c a0 3c ec 54 57 3d
       -0.09527931 0.1306271 0.019582838 0.052571222
0002b0 2a 9d 3d be 3e 25 58 be 19 2e 42 be 2e 1b cd bc
       -0.18516985 -0.21107957 -0.18962897 -0.025037374
0002c0 2e e8 47 3e 7e a8 40 3e 4c 67 f6 bd bf 0c 38 be
       0.19522163 0.18814275 -0.12031421 -0.17973612
0002d0 4d 5d 87 3d 5e 82 16 3e 5f 77 a2 3d 42 c1 df 3d
       0.066095926 0.14698169 0.079329245 0.10925533
0002e0 98 f4 a1 bc 6e 80 0a 3e 8a 59 ac 3d 48 a0 21 3e
       -0.019769952 0.13525555 0.08415516 0.15783799
0002f0 90 02 12 3c 78 42 01 be a9 c6 4e 3e 92 66 a3 bc
       0.008911744 -0.12623012 0.2019297 -0.01994637
000300 a5 ee bf 3d 94 f4 43 be d7 03 0e 3e 7d 6e fd bc
       0.0937169 -0.19136268 0.13868652 -0.030936474
000310 01 ff 10 be d5 b5 05 3d eb 03 44 be 71 f1 32 be
       -0.14159776 0.03264411 -0.1914212 -0.17474915
000320 05 e5 18 3e 47 16 72 bd 73 c2 d0 3d 41 ff 0b be
       0.14931114 -0.059103277 0.10193338 -0.1367159
000330 62 2c 1c 3d d2 0a 11 3e 11 51 94 3d 40 f9 d1 bd
       0.038128264 0.14164284 0.07242025 -0.10252619
000340 1a 89 0e 3e a3 2f 31 3e e4 c8 2e bd 9e 82 09 3c
       0.13919488 0.17303328 -0.042672053 0.008392958
000350 9a ed ad 3d dc 1d aa 3d 6b 43 32 3e 5f e7 03 3e
       0.084925845 0.083064765 0.1740853 0.1288123
000360 33 ce 9f bd 37 80 c6 3d f4 1e 2e 3d 24 dc ff bd
       -0.07803001 0.09692424 0.042509988 -0.1249316
000370 11 3a a2 bc c8 65 95 3d 52 23 4c be 6d 6b 99 bb
       -0.019803079 0.07294804 -0.19935349 -0.0046819956
000380 7a 9f 95 bc 22 fa 19 be ca 48 1d bd 12 de a7 b9
       -0.01826452 -0.15036824 -0.038399495 -0.00032018177
000390 00 88 a4 bb 58 83 f3 3d 76 f3 4b be ab e6 b6 3c
       -0.0050210953 0.11890286 -0.19917092 0.022326788
0003a0 d7 94 8d 3d 88 2c 47 3c b6 34 48 3e e1 a8 01 3e
       0.069131546 0.012156613 0.19551358 0.12662078
0003b0 f3 fc d3 3d 8b 2f d3 bd f9 aa 32 3e 62 d1 92 3d
       0.103509806 -0.103118025 0.17448033 0.07168843
0003c0 90 0b c5 bc 3e 16 b2 bd ce d5 fc 3d b2 ab 1f bd
       -0.024053365 -0.086956486 0.123454675 -0.0389821
0003d0 c0 6f 00 3e bc 4f a9 bd 0a 56 27 bd 4a 56 f0 3d
       0.12542629 -0.08267161 -0.040853538 0.11735208
0003e0 e4 f5 88 bd 16 96 16 be 50 34 c7 3c b1 ae ff bd
       -0.06687525 -0.1470569 0.024316937 -0.124844916
0003f0 0e cd 97 bc f9 b8 82 3d c1 4a 35 be 78 09 06 3e
       -0.018530395 0.06382937 -0.17704298 0.1308955

bias f4 [64]
000000 75 cd 10 bd 94 94 38 be 5a 0a 41 3e 9d cb 37 3e
       -0.03535219 -0.18025428 0.18851605 0.17948766
000010 44 ce 08 be be e0 3e bd ec 6b 33 3e f3 87 02 3e
       -0.13359934 -0.04660105 0.17521638 0.12747173
000020 31 ed ab bd e9 d1 dd bd e2 95 0e 3e 18 27 24 be
       -0.0839485 -0.10831053 0.13924363 -0.16030538
000030 cb 53 2c 3e fc bf 63 3d 07 fd 02 be 0e 7f 3a 3d
       0.1682884 0.055603012 -0.12791835 0.045531325
000040 82 24 23 be 97 db 22 be 64 bb c5 bd f3 de aa bd
       -0.15931895 -0.1590408 -0.096548826 -0.083433054
000050 fe 21 70 3d b5 96 32 3e 9b c0 08 3e 41 f2 d4 3c
       0.058626167 0.17440303 0.13354723 0.025994422
000060 df 2a b1 3d b5 4b 3f be dd 96 f2 bd 7c 1f 7f bd
       0.08650755 -0.18681224 -0.11845181 -0.062285885
000070 06 b3 a0 3c ba d3 3e be b9 ff 8d bd 3f 00 0a 3e
       0.019616615 -0.18635455 -0.06933541 0.13476656
000080 ff 64 fc 3d 5c 99 85 3d 35 d2 68 3d bd 25 e1 bd
       0.12323951 0.065233916 0.056841094 -0.10993526
000090 04 d1 0b 3e 08 3e 2f be e4 a8 63 3d e7 ed 41 3e
       0.13653952 -0.17113507 0.05558099 0.18938409
0000a0 72 9f 1f 3e 63 80 15 be 29 c7 27 be 35 77 0e be
       0.15588167 -0.14599757 -0.16384567 -0.13912661
0000b0 f7 32 a8 bd a2 d9 7f 3c 00 0b 1f 3e 3f d4 50 3e
       -0.08212846 0.015615853 0.1553154 0.20393465
0000c0 0a 53 07 be ed 12 9d bc ac cb 07 bd 99 34 7d bc
       -0.1321527 -0.019174064 -0.03315322 -0.015454435
0000d0 86 1f aa 3d 70 8f 1f be 92 1e 95 3c 93 69 4d 3e
       0.08306794 -0.15582061 0.018203054 0.20059805
0000e0 05 5c e9 3d 1b af f5 bd 39 67 6c 3d 1e 5f 56 be
       0.113945045 -0.11996289 0.05771563 -0.20934722
0000f0 d9 eb 25 3d 8d 55 2f 3d 87 dc 10 3e d9 cf 3d be
       0.040508125 0.042806197 0.14146625 -0.18536319

weight f4 [64, 64]
000000 6e ba 16 3e d4 25 00 be c4 44 e7 bd ff 3e 0e 3d
       0.14719555 -0.1251443 -0.11292413 0.034728047
000010 bb d5 94 3d 7b 1c 4f 3c 44 6a 38 bd 1d c4 5d 3c
       0.07267328 0.012641068 -0.045023218 0.013535527
000020 1e 85 89 3d e9 b2 35 3c 7d 1f 5e 3d f6 fc 17 3c
       0.06714843 0.011090019 0.05422925 0.009276619
000030 83 98 59 3c 0d 5c b4 3b 05 e4 0d 3e 6f a1 29 3d
       0.0132809905 0.0055041374 0.13856514 0.04141372
000040 31 a4 9d bd 68 12 63 bd 4c 11 e7 3d 37 f3 8e 3d
       -0.07697333 -0.055437475 0.11282596 0.06979983
000050 13 ec 2b be 36 f4 8b bd 07 96 98 bd 62 58 14 be
       -0.16789274 -0.06833689 -0.074504904 -0.1448684
000060 f1 d6 64 bd 6f f5 af bd 1f 49 58 3d 06 f9 25 bd
       -0.055869047 -0.085917346 0.05280411 -0.04052069
000070 11 3b d7 3d 4b 1c a5 bd b6 90 0e be e0 a9 35 3d
       0.10509313 -0.08062037 -0.1392239 0.04435146
000080 b8 78 55 bd aa 34 a1 3d 83 06 b8 3c 81 e2 9f bc
       -0.05211708 0.07871373 0.022464043 -0.019517185
000090 0c 92 47 ba e7 9f 83 3d fe c0 54 3d 6b 9e 3c bd
       -0.000761301 0.06426983 0.051941864 -0.046049517
0000a0 5f 65 e4 bd c9 d4 19 bd 45 b7 3e 3d 39 cc 1a 3e
       -0.111521475 -0.037556443 0.0465615 0.15116967
0000b0 76 e8 a5 3c 2a 01 0c 3e 9c ed 34 3d d3 07 d1 3d
       0.020252448 0.13672319 0.044171914 0.102065705
0000c0 55 76 da 3d bb 37 8e bc 2f 79 8d bd e6 1e 23 3d
       0.10667101 -0.017360559 -0.069078796 0.03982439
0000d0 78 fd 27 bb f7 c4 0b 3c d0 da 80 3d cc 8f e4 bc
       -0.0025633257 0.008530847 0.06291735 -0.027900599
0000e0 4b d9 f5 3d e2 0a c6 3d 7a e9 ce 3d 33 18 a5 bd
       0.12004336 0.096700445 0.10103126 -0.08061256
0000f0 fb 6d 00 3d fd 8f 27 3d 1b 2e 26 bd d9 8c 10 be
       0.031354886 0.040908802 -0.040571313 -0.14116229
000100 a0 84 4a 3d e1 10 b1 3c e1 d9 c8 bd a2 b7 c3 bc
       0.049442887 0.021614494 -0.09807182 -0.023891274
000110 65 35 61 bd 60 bd 48 3d 38 14 dd bd 90 b8 5f 3d
       -0.05498256 0.049008727 -0.10794872 0.054619372
000120 d1 ad 09 bd 68 12 4e bd 4b f8 1e 3d f6 c3 1f 3d
       -0.03361303 -0.050310522 0.03881101 0.039005242
000130 2f e9 15 3d 49 0c 1e 3e 7e 61 20 3d eb 5b 8f 3d
       0.036599334 0.15434374 0.039155476 0.06999954
000140 45 a8 a4 bd 52 ce 22 3d b5 71 1c bd 99 6e b3 3d
       -0.08039907 0.039747544 -0.038194377 0.08761329
000150 c7 e0 a2 3b 98 34 81 bd 34 48 4a 3d e8 9b 9a bd
       0.004970643 -0.063088596 0.049385265 -0.07549268
000160 c5 28 11 be 95 18 6f 3c 37 4e 85 bb 95 05 be bc
       -0.14175709 0.014593263 -0.004068162 -0.023196021
000170 c3 59 aa bd bd 90 96 ba 71 73 f9 bc 7a a5 7b 3d
       -0.08317902 -0.0011487227 -0.030450555 0.061437108
000180 61 57 ae bd 78 c8 ec bd a1 5a 03 3d a1 bd f8 bc
       -0.0851276 -0.11561674 0.032068852 -0.03036386
000190 63 04 e2 3d b0 73 68 bd e8 05 73 bd 90 d5 87 3d
       0.11035993 -0.056750953 -0.059331805 0.06632531
0001a0 ab cc 03 be bb f3 48 bd be 95 ea bc 14 46 8e bd
       -0.12871043 -0.049060564 -0.028635856 -0.0694696
0001b0 1c 24 04 3d 7d d1 bb bd 6d 97 23 3d db 4d a2 bd
       0.032261 -0.09170816 0.039939333 -0.07925006
0001c0 68 43 66 bc 70 e7 e6 bd 51 ad 23 3d 68 cc 3d bd
       -0.014054157 -0.11274612 0.03996021 -0.046337515
0001d0 23 98 8a bd d2 30 87 bd 81 31 e3 3d 91 d3 d6 3d
       -0.06767299 -0.066011086 0.110934265 0.10489572
0001e0 cc 51 30 be 3e 74 fe 3c ab b5 dc bc 64 da 5a 3d
       -0.17218703 0.031061288 -0.026942095 0.05343093
0001f0 c1 5e 14 be 46 2c 02 be 06 a4 07 bc 8c ec 15 3e
       -0.14489271 -0.12712201 -0.008278852 0.14641017
000200 9e 0c 95 bd b3 ca dd 3d 95 3e 3c bd 85 8c 86 bd
       -0.07277797 0.108296774 -0.04595812 -0.06569771
000210 7b d6 cd bd 3b cc 2d be 6d cb 68 3d 2b dc 30 3a
       -0.100506745 -0.16972439 0.056834627 0.0006746675
000220 c1 2d be bd e0 94 52 3d 29 cd 2e 3d b4 99 0c be
       -0.092860706 0.05141151 0.042676125 -0.13730508
000230 f6 98 80 bd bc 83 89 3d ac 72 e7 bd e7 f3 e1 3d
       -0.06279175 0.067145795 -0.11301169 0.11032849
000240 80 e0 24 ba 8c 4e 42 3d 38 24 ab 3c 2c 66 14 bd
       -0.00062895566 0.04743819 0.020891294 -0.03623025
000250 17 cf 4e bc 72 46 bd 3c f4 54 ba bd f4 78 84 bc
       -0.012622616 0.02310488 -0.09098235 -0.016170956
000260 7a 5d a0 3d f1 d8 66 bc 55 7a 1c be 1a d2 b7 bc
       0.07830329 -0.014089809 -0.15281041 -0.022439051
000270 52 7e 39 bd 1b 19 82 3b 09 60 78 bd 93 10 e8 3d
       -0.045286484 0.003970278 -0.06063846 0.11331286
000280 6a c5 19 be 71 fd 1d bd a3 7b c7 bd 41 fb d3 3d
       -0.15016714 -0.03857178 -0.09740379 0.10350657
000290 33 b9 05 be ab 44 bc bd d8 8a 43 3c 0f d4 49 bc
       -0.13058929 -0.09192785 0.011934958 -0.012318625
0002a0 dc 9e 27 3b 83 14 3e bd 74 02 bf bd 97 f4 9c bd
       0.0025576865 -0.04640628 -0.0932664 -0.07663839
0002b0 e9 3a 0b 3d 77 8a 51 bd a6 2d 7c bb 06 a5 a6 3d
       0.033991728 -0.05115744 -0.0038479357 0.081369445
0002c0 06 5a fe bd 59 03 85 3d 3b 0e 8c bd 83 22 93 3d
       -0.12419514 0.06494779 -0.06838652 0.07184317
0002d0 69 f5 f2 bd 3c 38 30 bd e0 a1 09 3e 63 2c e6 bd
       -0.118632145 -0.04302238 0.13440657 -0.11238935
0002e0 39 66 1f 3d d8 80 43 3d d0 68 45 3d 2c 67 e5 bd
       0.038915846 0.047730297 0.04819566 -0.11201319
0002f0 4c 9e 48 3e 88 bb e3 3d eb 54 bc 3d db 30 f2 bd
       0.19591635 0.11119753 0.09195884 -0.11825725
000300 8a a8 9a bd 9c 50 c9 bd e9 24 3f bd c0 e3 40 bd
       -0.075516775 -0.09829828 -0.04666606 -0.0470922
000310 3f 33 cf bd 59 72 9f bc 63 e2 15 3d 56 b3 bb bd
       -0.10117196 -0.019463705 0.036592852 -0.09165065
000320 7a 6e 4e 3d 8f e9 8f bc 04 84 9f 3d 1c 6c ae bd
       0.050398327 -0.017567424 0.07788852 -0.08516714
000330 d6 22 01 bc 4a 8f 04 be e1 f3 20 3d 40 b8 2e 3a
       -0.007881841 -0.12945285 0.03929508 0.00066650286
000340 aa c8 82 bd 61 b9 b3 bc eb 35 9b bd 63 ad e4 3d
       -0.0638593 -0.021938981 -0.075786434 0.111658834
000350 ea 17 1b be ba b5 fe 3d d1 4d 3c be be 08 91 bc
       -0.15145841 0.12437005 -0.1838906 -0.017704364
000360 f9 78 7a 3d c9 f7 95 3d 4a f7 86 3d ca 0a 5c 3d
       0.061150525 0.07322652 0.065901354 0.053721227
000370 bd 79 a9 3d 10 f0 11 be 84 7e 9c bd db 61 24 3d
       0.08275173 -0.14251733 -0.076413184 0.040132385
000380 56 9d 66 3b 55 3c 36 3d e8 4b f9 bd d6 57 c5 bd
       0.0035188994 0.04449113 -0.12172681 -0.09635894
000390 d6 06 87 3a 31 cb 10 3e 86 bd a3 bd a7 d6 a3 bd
       0.001030172 0.14140011 -0.07995133 -0.07999926
0003a0 33 15 93 bd ff 5e 24 3e 77 d4 96 3d e8 22 a9 bd
       -0.07181778 0.16051863 0.07364743 -0.08258611
0003b0 c2 ee 04 b9 db 14 4e bd a9 43 db bd 0d 60 0d 3e
       -0.00012677445 -0.050312858 -0.107062645 0.13806172
0003c0 c3 34 fa bc 81 1b 64 bd 32 8d 96 bd 1d 49 e0 bd
       -0.030542737 -0.055690292 -0.073511496 -0.10951445
0003d0 6a 2a dd bd 1a ba e1 3d 77 b2 ee 3d a9 39 bd bc
       -0.107991055 0.11021824 0.11655133 -0.023098784
0003e0 0a 40 e1 bb 7c 1f f5 3c 0a 15 43 bc 70 07 a0 bd
       -0.006874089 0.02992224 -0.011906872 -0.078139186
0003f0 5d 7f e0 3d ba 9d 8f bd 64 a4 b5 3c e9 9f d5 3d
       0.109617926 -0.07012506 0.022173114 0.10430891

bias f4 [64]
000000 ad 1d f5 bd 0f c1 45 3c 38 28 7e 3d d6 f0 99 3d
       -0.11968551 0.012069955 0.062050074 0.07516639
000010 49 18 f6 bd 99 0b 25 bd 00 78 23 bd ad ba 6f bd
       -0.12016351 -0.040294264 -0.039909363 -0.058527637
000020 80 84 94 3b e4 49 57 bd f6 b3 ac bc a4 b2 a1 3c
       0.004532397 -0.052560702 -0.021081906 0.019738503
000030 82 68 e1 3c c7 b9 f7 bd e5 2f 0f 3e 9a eb 07 be
       0.027515654 -0.12095981 0.13983114 -0.13273469
000040 3d 53 64 bd 64 08 af 3d 49 0c 95 bd 3f 91 99 3c
       -0.055743445 0.08546522 -0.07277734 0.018746017
000050 f6 60 78 3d a2 d7 e6 bb 73 be 31 3d 20 1c 10 3d
       0.060639344 -0.0070447484 0.043394517 0.035183072
000060 c5 d3 0d be 52 d6 44 bc 02 5f 6b 3c 2d ac 18 bd
       -0.13850315 -0.012013989 0.014365913 -0.037273575
000070 fe 0f 91 bd 26 86 db ba 44 66 a2 3d c9 fc d1 bd
       -0.070831284 -0.0016748353 0.07929662 -0.10253293
000080 c5 1c bb 3d 36 36 ae bd 98 7c 0c 3d b3 85 f8 3b
       0.09136347 -0.08506434 0.03429851 0.0075842976
000090 08 f8 33 3d 15 96 9c 3c b2 bb 84 bd 81 b1 c2 bd
       0.043937713 0.019114533 -0.064811125 -0.095065124
0000a0 17 f6 35 bd 1d 40 9f bd 55 a9 c6 3d 33 e9 b4 bc
       -0.044424143 -0.077759005 0.09700266 -0.022083854
0000b0 e5 0d 29 3d 65 12 29 bd ee 66 a0 bc 59 a3 01 bd
       0.041273016 -0.041277308 -0.01958033 -0.03164992
0000c0 8c b7 d8 bd a2 aa 6c bc 1e 6a 4c 3d 85 39 70 3d
       -0.10581884 -0.014444979 0.04990589 0.058648605
0000d0 d2 64 f5 3d 2d f0 90 ba 36 8d 90 3d 5a d9 81 3c
       0.119821206 -0.0011057906 0.07058184 0.015850712
0000e0 a2 23 f4 bd 16 77 ea 3b ca bd 6d bd fe 7c 3c bd
       -0.11920859 0.0071553094 -0.058042325 -0.04601764
0000f0 0e 4d 4b bd cf 9b 05 be a7 3d c7 3d 96 cf 64 bd
       -0.049634032 -0.13047718 0.09728556 -0.055862032

weight f4 [6, 64]
000000 af e6 82 bc 22 07 c1 bc f1 98 02 be dd 5c 38 be
       -0.01597914 -0.023562972 -0.12753655 -0.18004175
000010 6a 0e 65 bc c0 6f e8 bb f9 d5 13 bd 66 4c 9b bd
       -0.013980487 -0.0070933998 -0.036092732 -0.07582931
000020 04 65 14 be 06 7e d4 3d 80 68 39 3d 5d 8d 09 3e
       -0.1449166 0.103755996 0.045265675 0.13432832
000030 41 3b 10 3c be 89 06 be 7d 60 de 39 29 f9 0a bd
       0.00880319 -0.13138482 0.0004241503 -0.033929024
000040 90 29 9d bd c3 6d f9 3d 7b 19 a1 3d d2 b0 82 bd
       -0.07673943 0.121791385 0.07866188 -0.06381382
000050 46 45 2e 3d 65 fe 27 be 38 a5 be bc c2 cd 38 3e
       0.042546533 -0.16405638 -0.023272142 0.1804724
000060 e1 e0 d4 3c 2d f4 7e 3c 3d ce 0e 3e b3 e7 c8 3b
       0.025986137 0.015561146 0.13945861 0.0061311363
000070 d6 80 ad 3c 71 0d c1 bc 28 b9 74 bc 6c ba bf b9
       0.021179598 -0.02356598 -0.014936723 -0.00036569254
000080 a1 bc 04 3e c1 bf 7b 3d 44 02 8b 3d 39 81 53 bd
       0.12962581 0.061462168 0.067875415 -0.05163691
000090 2b 29 13 be db af b2 bd 34 a9 f6 3d b8 8b 91 bc
       -0.14371173 -0.08724948 0.12043992 -0.017766818
0000a0 05 d6 c6 3d 9c 1f 22 3e 56 a0 a6 3b b1 85 b2 3d
       0.0970879 0.1583237 0.0050850315 0.08716906
0000b0 52 00 1c bd 73 a5 c0 3c b9 02 a3 3d cc 0d eb bb
       -0.038086243 0.023516392 0.07959504 -0.0071732756
0000c0 35 fa 19 3e ec 4e 20 be ad 82 69 3d b6 60 fa bd
       0.15036853 -0.15655106 0.057009388 -0.122254774
0000d0 f9 aa cc 3c 49 b9 11 bc a2 bc b5 bc 90 14 ab 3c
       0.02498387 -0.008894273 -0.022184674 0.020883828
0000e0 89 5b f3 3d 58 47 15 be ab 75 86 bb 56 87 bf bd
       0.11882693 -0.14577997 -0.0041033826 -0.09351985
0000f0 4d 59 e9 bd ae 3e 25 3e 73 fe f9 3d 6b 7d 19 be
       -0.11393986 0.16137192 0.122067355 -0.1498925
000100 fa f2 f4 bd 9a 09 0a 3e 31 7b 27 be 19 fe a0 bd
       -0.119604066 0.13480225 -0.16355588 -0.07860965
000110 09 f5 55 bc 84 de 25 3e 73 17 99 bd 84 66 88 bd
       -0.013058909 0.16198164 -0.07475176 -0.06660178
000120 e5 85 5a bd 5b 12 88 bc 35 45 f1 3d 90 b9 46 bd
       -0.053350348 -0.016610315 0.11780778 -0.04851681
000130 0e dd 8a 3c 35 34 96 bd d3 d7 06 be d0 f1 43 3c
       0.01695111 -0.073341765 -0.13168268 0.011959508
000140 f7 20 a2 bb 3b f6 e7 3d 95 73 41 3d 31 f3 b6 3c
       -0.0049477774 0.113262616 0.04722937 0.02233276
000150 d5 ce 07 be 07 9f 5d 3d 95 85 15 3e 76 3e 1f 3e
       -0.13262494 0.05410674 0.14601739 0.1555117
000160 1e b1 77 bd 44 7c 37 be fd e8 c0 3d 3f cb b6 3d
       -0.060471646 -0.17918497 0.09419439 0.08925485
000170 f6 a2 ea bd 38 ae dd bd 46 6d 2e 3d dd 36 a8 bd
       -0.114568636 -0.10824245 0.04258468 -0.08213589
000180 9c 90 06 be 57 51 dc 3c 93 1e 78 bd 34 e3 f2 3d
       -0.13141102 0.026894255 -0.060576033 0.11859742
000190 1b cf 2f bd ec 4c 98 bd 8e a1 77 3d 7a c1 c9 3c
       -0.04292212 -0.07436547 0.060456805 0.02462839
0001a0 e6 e3 16 bc 19 85 1c 3d 0c 53 c4 3d 67 8a 09 bc
       -0.009209609 0.03821287 0.095861524 -0.008394814
0001b0 47 7d 31 be 2a 6f b4 39 d6 a8 8d bd 26 7c a0 3d
       -0.17332946 0.000344151 -0.069169685 0.078361794
0001c0 e9 56 4c 3e 1c 7e a8 bd 52 47 08 be 73 eb 91 bc
       0.19955029 -0.082271785 -0.13308457 -0.017812466
0001d0 26 76 c7 bc 20 ba f3 bd 24 aa ed 3d 8b 55 2f be
       -0.02434833 -0.11900735 0.116047174 -0.17122476
0001e0 fb 3f 58 bc 96 0f 84 bd f5 f3 14 bc 9f 9e 08 be
       -0.013198848 -0.06448285 -0.009091367 -0.13341759
0001f0 c7 8f 3a be 70 80 9d 3d 57 27 85 3c 16 e7 9b bc
       -0.18218909 0.07690513 0.01625411 -0.019031089
000200 a7 ba ba bc 15 92 90 3d 58 22 58 bd 7e 01 62 3d
       -0.02279408 0.07059113 -0.052767128 0.055177204
000210 f2 e8 00 3e 70 d6 d9 3d ec d4 dc 3d d3 7f bb bd
       0.12588862 0.10636604 0.10782799 -0.0915524
000220 3e fb 05 bd ed 79 51 3d 93 31 4e 3d 82 4a 53 3c
       -0.032710306 0.051141668 0.050340246 0.012896182
000230 0a 5e 77 bd 6d cd 0a be 61 17 b9 bd 75 81 5e bc
       -0.060392417 -0.13554926 -0.09037662 -0.01358067
000240 5f fa 80 3c df 52 01 3e 39 33 f2 3d 53 ce d9 3d
       0.015744386 0.12629269 0.11826176 0.10635056
000250 a4 0b b2 bc d7 c9 ce 3a da 9b b6 3d 05 4b 1b bc
       -0.021734066 0.0015776706 0.08916445 -0.009478335
000260 0a c9 91 3d 29 da 08 be 3e ff 90 3c 22 22 17 be
       0.07118423 -0.13364471 0.017699834 -0.14759114
000270 d7 37 68 3d 9e 52 10 be 19 e9 72 bd c1 11 8f 3b
       0.056693878 -0.14094016 -0.05930433 0.00436613
000280 3b 88 b7 bd d3 93 bd 3c 1e 4e b6 bd b8 42 55 3d
       -0.08961531 0.023141777 -0.089016184 0.05206558
000290 b5 0a f1 3b 5d 42 85 bd 74 50 e0 3d b5 f1 07 3e
       0.0073560127 -0.065067984 0.10952845 0.13275798
0002a0 16 24 44 bd e1 ed 76 3d 64 de a2 3d ca 4d f8 bc
       -0.047885977 0.060285453 0.07952574 -0.03031053
0002b0 91 eb 98 3d 53 fe 84 bb 33 32 a8 3d d4 64 f0 bd
       0.07466806 -0.004058638 0.082127 -0.117379814
0002c0 fb 7f ed bd 17 12 5d bd d6 4d 06 be cb bc cb 3d
       -0.11596676 -0.05397233 -0.1311563 0.09948119
0002d0 de b2 42 bd 6b e0 fc bd 04 bb 85 3b 30 e5 a2 3d
       -0.047533862 -0.12347492 0.004081132 0.0795387
0002e0 86 cb af 3d ee a1 1b be 1b 1e 0d 3c ed 62 8f bd
       0.08583741 -0.1519849 0.008613135 -0.070012905
0002f0 74 cd a0 3d f0 77 b0 bc 0d 5c 9d 3d 78 e4 a8 bc
       0.07851687 -0.021541566 0.07683573 -0.020616755
000300 da 8a 05 be 79 0b dc 3d d5 86 af 3d 85 44 ee 3c
       -0.13041249 0.10744376 0.08570639 0.029085407
000310 93 c2 ab 3d 7b ce be bc a3 bd d3 bd 71 0a 5c bd
       0.083867215 -0.023291817 -0.10338905 -0.053720895
000320 5c 6a 7d bc 57 f9 d4 bd 1a ec 6f 3d 4a 51 8d 3d
       -0.015467253 -0.1039912 0.058574773 0.0690027
000330 5f 4d e2 bd fb 32 0f be f2 f2 cc bd 9e c9 aa 3d
       -0.110499136 -0.13984291 -0.10007276 0.08339237
000340 aa 12 80 3d 96 bc 05 bb 1d 9e 34 3d 88 ca 00 3d
       0.0625356 -0.0020406595 0.0440961 0.03144315
000350 30 3e 6b 3d e4 aa b0 bd 28 64 a2 bd 9f ab 03 3e
       0.057432353 -0.08626345 -0.079292595 0.12858437
000360 f3 37 85 3d f7 6f c9 3d cf 30 09 3e 2c a3 d6 3d
       0.06504812 0.09835809 0.13397525 0.10480341
000370 54 c9 b6 bd 6d c7 36 3d ee 9e 75 bd be 01 b5 3d
       -0.08925119 0.04462378 -0.05996602 0.08838223
000380 a7 e3 f7 3c e3 c5 b4 3d 0a 26 28 3c 0a 46 83 3d
       0.03025992 0.088268064 0.0102629755 0.06409843
000390 e2 4a 1d bd 33 d6 fb 3d 67 a5 52 bd fc 3c f4 bd
       -0.038401492 0.12296715 -0.05142727 -0.11925694
0003a0 f0 77 46 3b e0 c5 7e bb ba 22 7f bd d5 80 2c bd
       0.003028389 -0.0038875267 -0.062288977 -0.04211505
0003b0 f2 ba 10 be 01 4b 27 3d 8a fe 93 3c 31 58 ac bd
       -0.14133814 0.040843014 0.01806571 -0.08415259
0003c0 4a 2b 79 3d eb 6b ad 3d 34 10 ae bd 0e 50 10 3d
       0.0608323 0.08467849 -0.08499184 0.035232596
0003d0 8e f5 23 bd 15 7a ad bd 37 55 7e 3d 28 c1 bd bd
       -0.0400291 -0.08470551 0.062092986 -0.09265357
0003e0 a1 86 11 be 97 7d cd bd 49 28 dc bc 8e 1a 2f bd
       -0.14211513 -0.1003372 -0.026874678 -0.042749934
0003f0 d9 b5 13 bd 77 2d c9 bd 7e b7 b7 3d 73 d1 2b bd
       -0.036062095 -0.09823125 0.08970545 -0.041947793

bias f4 [6]
000000 27 b3 38 3d 08 d5 b0 bd d2 37 32 bd 49 a7 9a 3d
       0.045092728 -0.086343825 -0.043510266 0.07551438
000010 b6 fb 87 3a 7d 7a 79 3d
       0.0010374698 0.06090783

weight f4 [64, 26]
000000 17 4e 48 be 60 75 8b bc 3d 29 a0 3c e4 e7 70 3d
       -0.19561039 -0.017023742 0.019550914 0.058814898
000010 b8 59 cd bc 88 ff 18 bd 99 2e 1a 3e 12 c9 1c be
       -0.025067195 -0.03735307 0.15056838 -0.15311077
000020 01 42 31 3d 12 91 e3 bd 06 26 ad 3b df c3 67 bd
       0.043275837 -0.11111654 0.0052840738 -0.05658328
000030 58 55 30 3d ab eb 0e 3d 58 a5 d0 3d 2a 68 f6 3d
       0.04305014 0.03489272 0.10187787 0.120315865
000040 69 47 13 3e e0 25 24 be a4 43 ad 3d e5 94 b7 bd
       0.1438271 -0.16030073 0.08460167 -0.08963946
000050 31 cd 00 3e f7 9a f7 3d 47 ae b6 bd b9 8f 0d be
       0.12578274 0.12090104 -0.089199595 -0.13824357
000060 6b 4e 56 bd 71 3f fc 3c 86 96 85 bd 3d 64 f5 bd
       -0.05232088 0.03079197 -0.06522851 -0.119820096
000070 4f ac 16 bd 55 29 ce bd d3 91 1d 3e f9 bc 0f 3e
       -0.03678542 -0.10066477 0.15387659 0.14036931
000080 80 0f 1b 3b 58 7d 0b 3e d4 18 eb 3d 60 1d 1b 3d
       0.0023660362 0.13622034 0.11479345 0.03786981
000090 e0 d8 28 be 2c 9c 14 be 9c 1a 6d bc 9f ec 48 3d
       -0.16488981 -0.145127 -0.014471676 0.049053784
0000a0 dd 16 0e be a2 a8 13 3c 4e 34 df bd 33 dc f2 3d
       -0.13875909 0.009012373 -0.10898648 0.11858406
0000b0 3f ea b9 3b 6e 22 1e 3d 72 4e 40 be a8 64 6c bd
       0.0056736763 0.038607053 -0.18779925 -0.05771318
0000c0 6d 10 eb bd b4 c9 a5 3d fd bf be bd 9c e9 80 3d
       -0.11477742 0.080951124 -0.093139626 0.062945575
0000d0 95 40 4c bd d8 ff ea 3c 9e 62 30 3d 59 79 b6 3d
       -0.049866278 0.028686449 0.0430628 0.08909864
0000e0 24 22 28 be e2 e9 e7 3d 48 00 18 bd 27 3b 1a 3e
       -0.16419274 0.113239065 -0.037109643 0.15061627
0000f0 26 93 15 be bb 47 18 be 84 b5 f8 3d e8 ac 60 be
       -0.14606914 -0.14871113 0.12143996 -0.21940958
000100 3f e8 cb bb ee 90 28 3e b7 ec b7 3d 90 fb eb bc
       -0.0062227543 0.16461536 0.08980697 -0.028806478
000110 97 47 0e be ae 07 08 3e bc 58 12 3e bd 39 d3 bd
       -0.13894497 0.1328418 0.14291662 -0.10313747
000120 db 52 ec 3d f6 8f 44 3c c6 37 4b bd 88 a3 32 3e
       0.11539241 0.011997214 -0.049613737 0.17445195
000130 8a a2 42 3d 1a 63 04 3e c3 d4 e5 3d 65 af 08 3e
       0.04751829 0.12928429 0.11222222 0.13348158
000140 e5 b8 08 be f9 2a 4e be 08 58 4a bd 7f 77 3e 3c
       -0.13351782 -0.2013358 -0.04940036 0.01162517
000150 90 02 3a bd a6 98 1e bd f8 8a e0 bc 0a 70 b4 bb
       -0.0454126 -0.038719796 -0.027410015 -0.00550652
000160 7a a6 43 3e 10 74 ec bd ca 59 13 be 29 60 19 be
       0.19106475 -0.11545575 -0.1438972 -0.14978088
000170 60 3b 11 3e 2e 19 fb 3d 56 89 db bc a8 5b 91 bd
       0.14182806 0.12260662 -0.026798885 -0.0709756
000180 58 54 b7 3c 71 2f 8d bd f3 7c 6a 3d 22 aa 05 bd
       0.022379085 -0.06893814 0.057248067 -0.032632954
000190 bd fe ac 3d c7 f7 ec 3c 03 58 f4 3d de 78 1a 3e
       0.08447025 0.028926743 0.119308494 0.1508517
0001a0 2c bd 72 be 76 c4 ae 3d af bc 16 be 68 ad 76 3c
       -0.23704976 0.08533566 -0.14720415 0.015055992
0001b0 ca bb ae 3d 25 95 78 be 3f e1 a0 bd 10 89 f7 3c
       0.08531912 -0.24275644 -0.07855462 0.030216724
0001c0 8f b7 12 3e e3 ef d8 3d 92 ce 0b 3b 50 97 84 bd
       0.14327835 0.1059263 0.0021332842 -0.06474173
0001d0 58 31 c5 bd 79 29 8b bd 66 e3 d8 3d 17 0d c3 3d
       -0.09628552 -0.0679502 0.10590248 0.09523981
0001e0 76 62 b5 bd c6 20 a5 bd da 26 ed bd d9 60 34 bd
       -0.088566706 -0.08062892 -0.11579676 -0.044037674
0001f0 bc 16 e3 3d 11 86 fd 3d fc e6 40 3e ff ab 95 bd
       0.110883206 0.12379087 0.18838114 -0.07308196
000200 8c 36 f5 3d 81 e0 76 3d 69 42 20 3e 66 82 1c be
       0.119732946 0.060272697 0.15650333 -0.15284118
000210 eb 9b 2f bc 0e 3b 47 3e f4 5c 76 3d 2f 5f 09 be
       -0.010718326 0.19456121 0.06014724 -0.13415216
000220 ac 70 2b be e2 eb 17 3e cc 06 ed bd 79 65 c6 bc
       -0.167422 0.14836076 -0.11573562 -0.024218308
000230 0a 8e 37 3e 25 96 58 bd 35 94 94 3c 6a 93 81 bd
       0.17925277 -0.052877564 0.018137077 -0.06326945
000240 6e 9c 43 be 48 4c ea 3d f3 bb 90 bd 99 fb 2c bd
       -0.19102642 0.11440331 -0.070670985 -0.04223213
000250 55 e4 04 bd eb 4d 54 3e b0 b4 39 3e 8c e0 a0 3d
       -0.032444317 0.20732848 0.18135333 0.07855329
000260 d9 34 9e bd af 1d f0 bd bd 43 1c be eb 68 93 bd
       -0.07724924 -0.11724412 -0.15260215 -0.07197746
000270 df 40 5d 3e c0 e0 5e 3c bf ad 3e bb 35 4e 97 bd
       0.21606778 0.013603389 -0.002909526 -0.07387964
000280 ae 84 a1 3d e6 84 4e 3e c6 45 94 bd ca 88 1d bd
       0.07886635 0.20167884 -0.07239871 -0.03846053
000290 21 3c 52 be e4 6b 9d bd ae b2 bd bd 0c be 06 be
       -0.2053075 -0.07686594 -0.09262596 -0.13158435
0002a0 86 3a e6 3d 02 9b e7 3d 28 ff ad 3d 26 a2 0f 3e
       0.11241631 0.11308862 0.08495933 0.14026698
0002b0 87 a6 7d 3c 6c 0e 14 3e 69 c4 36 bc cf 1e 4e 3d
       0.015481598 0.14458627 -0.011155226 0.05032235
0002c0 27 ea df bd b7 97 a3 3c 25 6f 9d bd fe 29 b9 3c
       -0.10933333 0.019969804 -0.07687215 0.022603031
0002d0 4f 17 60 bd d7 56 1c bd 8e ab 38 3e 51 95 1f 3e
       -0.05470973 -0.038168754 0.18034193 0.15584303
0002e0 6d 9a 19 be f1 73 68 3e b0 e7 32 bd 80 f2 45 3e
       -0.15000315 0.22700478 -0.043677986 0.19330788
0002f0 30 67 26 be d3 34 2c be 37 2e e8 bd 09 50 fd bb
       -0.162503 -0.16817026 -0.1133694 -0.007730488
000300 61 55 2e 3e 67 6f 99 3c 5c e7 71 bd f8 3d 98 3d
       0.17024757 0.018729879 -0.059058532 0.074336946
000310 e2 b2 f3 3d 8b 3b 21 3e 51 47 1f be 43 51 a0 3c
       0.118993536 0.1574537 -0.15554549 0.019569999
000320 5e cf 1b 3e 6f 4f 75 bd 42 86 8b 3d 77 c4 25 be
       0.15215823 -0.059890207 0.06812717 -0.16188227
000330 f7 e2 3b be 40 f0 4c bd 6e 87 d5 3b c5 66 15 3e
       -0.18348299 -0.050033808 0.0065163886 0.14589985
000340 cc 30 66 3c cd 23 eb bd ca d2 82 3d dd 4e f5 bd
       0.01404972 -0.11481438 0.06387861 -0.119779326
000350 33 f0 04 3e 8e 38 f0 bc 66 0a d8 3d 31 53 9d bd
       0.12982254 -0.029323842 0.10548858 -0.07681883
000360 20 05 54 bd 42 cc a6 bc ee 9a 2d be 16 0d 43 be
       -0.0517627 -0.02036107 -0.16953632 -0.1904796
000370 fe f8 d8 3d 34 c2 e2 bd 22 a2 1b 3e 39 35 88 3d
       0.105943665 -0.110721976 0.15198568 0.066507764
000380 8b ba be 3d 13 de 22 be 17 71 36 3b 7d 7b 0a bd
       0.09312924 -0.15905027 0.0027838403 -0.033809174
000390 fe 4b c9 3d 17 5f 1f 3e 2d 60 4e 3e 56 52 80 bd
       0.098289475 0.15563618 0.20153876 -0.06265704
0003a0 f6 26 b8 3d 26 4e 3c bd 76 b8 46 3e 39 84 2e 3e
       0.08991806 -0.045972966 0.19406304 0.17042626
0003b0 61 10 dd bd 38 42 c6 3d 69 70 0a 3e d0 89 88 3e
       -0.1079414 0.09680599 0.13519444 0.26667643
0003c0 13 37 31 be 47 28 37 be 9f 14 38 3e ff 58 35 3d
       -0.17306165 -0.17886458 0.17976616 0.044274326
0003d0 4e 6c 28 be 7f 0d 8d 3d cd 9e 85 3d eb cc bd bc
       -0.16447565 0.0688734 0.065244295 -0.023169002
0003e0 b0 2d f0 bd 0a 69 6c 3e 86 5b b1 bd 3d 3b 24 3e
       -0.11727464 0.23086944 -0.08660035 0.16038223
0003f0 71 02 ac bb 67 dd 10 be 4e 8c 25 bd 6d 4a d4 bd
       -0.0052493145 -0.14146958 -0.040417008 -0.10365758

bias f4 [64]
000000 51 c0 3e be ef e6 3d 3e d9 3e 83 3d 52 00 2f bd
       -0.1862805 0.18545125 0.064084716 -0.042724915
000010 8c 52 b5 3d 6a cc 1b 3e 21 37 1e 3d 6b d1 7f 3d
       0.08853635 0.15214697 0.038626794 0.062455576
000020 c4 ff 44 bd a3 92 7c 3c 5c 13 21 bb a6 b7 10 3d
       -0.04809548 0.01541582 -0.002457819 0.03533139
000030 5c 24 98 bc 3e 6a b7 3d 8b 7e 6c bd b0 b5 a5 bd
       -0.018572025 0.08955811 -0.05773787 -0.08091295
000040 be bf cf 3d 36 3b 3f 3e 7e 15 c0 3c 6d 4c 11 be
       0.10143994 0.18674931 0.023447748 -0.1418931
000050 57 6c 0d bc 6d 3e 87 3d 50 ba 3b be 49 b9 0a bd
       -0.008631787 0.06603704 -0.18332791 -0.033868108
000060 da c2 4f be f7 36 88 bd 31 06 54 ba 29 8a d2 3d
       -0.20289174 -0.06651109 -0.0008088081 0.10280258
000070 09 3e 1f 3d af 1a a4 bd e2 e6 a5 bd b2 6a 35 3c
       0.03887752 -0.08012902 -0.08100678 0.011072801
000080 81 c2 86 bd b1 f0 28 3d e3 be 39 be 83 94 8f 3d
       -0.065800674 0.041245166 -0.18139224 0.07010748
000090 ac 70 f1 bd c3 d1 31 3e 51 c3 16 be 69 b4 b2 bd
       -0.117890686 0.17365174 -0.14722945 -0.08725817
0000a0 ad b3 eb bd ac c5 71 3c d0 d1 74 bc f0 e7 27 bc
       -0.1150888 0.014756601 -0.014942601 -0.010248169
0000b0 fb fb 03 be 57 e5 4b 3d 09 0b c5 3d de ba 2a bb
       -0.12889092 0.049779262 0.096212454 -0.0026051323
0000c0 59 67 35 be 49 98 35 bc 23 84 3c bd cf df ef 3d
       -0.17715205 -0.011083671 -0.046024453 0.1171261
0000d0 9a 7a c1 bd 40 01 55 3d ca 56 3a 3e 6c ea 6c bd
       -0.094472125 0.052003145 0.1819717 -0.05784075
0000e0 f1 b3 b6 bc ae fd 02 3e d5 06 bd 3d 5a a0 e3 bd
       -0.0223026 0.12792084 0.09229819 -0.11114569
0000f0 b1 ce a4 3c 4b a0 23 be b4 f5 76 3d b9 90 8d 3d
       0.02011809 -0.15979116 0.060292915 0.06912369

weight f4 [64, 64]
000000 59 f1 e2 bb 32 57 d9 bd 10 fd 6d bc 18 a9 17 3d
       -0.0069257435 -0.10612334 -0.014525667 0.037026495
000010 2b 2f 71 3d 32 28 fa 3d a9 73 45 3c 92 54 2a 3e
       0.058882874 0.12214698 0.012051501 0.16633824
000020 ee 48 0b 3d ee 97 16 3e 38 73 b4 bd ac 03 17 bc
       0.034005098 0.14706394 -0.08811039 -0.009217184
000030 14 27 66 3c b8 44 8d bd a2 54 d3 3d 8a 18 6c 3c
       0.014047403 -0.06897873 0.10318877 0.014410147
000040 78 59 14 3b 8a 6a 61 bd 83 96 59 3b 18 85 9c bd
       0.0022636335 -0.055033244 0.0033201284 -0.07642573
000050 38 b0 05 bd 96 67 2f 3d 7d 6c d3 bc 87 2c 22 3e
       -0.03263876 0.042823397 -0.025808567 0.15837298
000060 78 6e 91 bd 96 f0 02 be e3 70 81 3c bc b1 b6 bd
       -0.07101148 -0.12787089 0.015800899 -0.08920619
000070 1d 7e 8f 3d 2b 58 16 be 65 85 7e bd 2e 5d 17 3e
       0.07006476 -0.14682071 -0.062138934 0.14781639
000080 3e a7 f1 3b c4 ce 2f 3d c7 53 b0 bd 98 c8 06 3e
       0.007374673 0.042921796 -0.08609729 0.13162458
000090 87 6d f6 bc 01 61 1c 3e d4 a7 96 bd 64 18 ad 3d
       -0.030081524 0.15271379 -0.073562294 0.08451918
0000a0 b9 38 a5 bd 3e f4 ae 3d 49 bb 88 bc d8 97 ca 3d
       -0.080674596 0.08542679 -0.016690867 0.09892243
0000b0 1a 1c b0 bd b1 ba 15 be fb 24 d3 3c 3c 28 c6 3d
       -0.0859911 -0.14621998 0.02577447 0.09675643
0000c0 9a 14 f1 3d 66 40 8c bd b0 2b b2 3d 18 c6 05 bc
       0.117715076 -0.068482205 0.08699739 -0.008164905
0000d0 bc ce 0a bd 9b c5 3b bd 16 44 c9 bd 1e d3 20 be
       -0.033888564 -0.045842748 -0.098274395 -0.15705535
0000e0 6b 5d 04 3d b0 fe d3 bd 1a e9 db bd 4e 74 92 3d
       0.032315653 -0.10351312 -0.1073782 0.071510896
0000f0 9d 5e fb bd 09 c7 e1 3c 61 81 e3 3d 64 39 e3 3d
       -0.122739054 0.027560728 0.111086614 0.11094931
000100 66 bf e0 bd f8 59 a3 bd dc 3b af 3d 3b 9f 8d bd
       -0.10974006 -0.079761446 0.08556339 -0.069151364
000110 06 4c 6a bd d7 b7 9f 3d 98 e4 ec bd 10 54 d9 bd
       -0.057201408 0.077987365 -0.11567038 -0.10611737
000120 a9 99 f5 3d 6e 29 0b be 92 50 05 3e 7c 29 d3 bd
       0.11992199 -0.13590023 0.13019016 -0.10310647
000130 67 34 2a 3b 38 ff eb 3d a0 19 f1 3d 3f 5c 83 3c
       0.0025971176 0.115232885 0.11772466 0.016035197
000140 c3 0f c4 3d 36 69 65 bc de 2f 4e bc cd 7e b4 3d
       0.09573319 -0.014002135 -0.012584655 0.08813248
000150 e3 69 a6 3a be fd 81 3c a6 4f b7 bd 65 c1 4a 3b
       0.0012696352 0.015868064 -0.089507386 0.0030938026
000160 e0 63 3c bd 18 e6 81 3d e6 99 9a 3c aa c1 29 3e
       -0.045993686 0.06342715 0.018872213 0.16577783
000170 5f 2b 1c 3d 04 49 cd bb 2f e5 ff bd f8 41 16 3d
       0.0381273 -0.0062648077 -0.12494885 0.036684006
000180 d4 42 10 3d 43 0e d5 3d 42 36 ad bd 7b 27 a5 bc
       0.035219982 0.10403111 -0.084576145 -0.020160427
000190 ea 06 94 bd 37 3c 64 bc d3 fe c5 3b 21 36 51 3d
       -0.07227881 -0.013930372 0.0060423403 0.051077012
0001a0 8c d8 cd 3c 9b 73 b3 bd 30 de 01 3d 55 89 c9 bd
       0.025127672 -0.08762284 0.031706035 -0.09840647
0001b0 95 e7 ba 3c 18 c2 fd 3d 44 51 bd 3c 42 9f 75 bc
       0.022815505 0.12390536 0.02311004 -0.014991583
0001c0 10 38 83 3d 3a 5f 49 bc 5a 10 01 bd 94 99 e6 bd
       0.064071774 -0.01229077 -0.031509735 -0.112597615
0001d0 d7 0e 92 bd 29 82 a4 3d 5c 19 1f ba be 12 e4 bc
       -0.07131737 0.080326386 -0.00060691475 -0.027840968
0001e0 63 0c 90 bd 62 be a0 3c c2 57 a6 bb 3f 81 c3 3d
       -0.070336126 0.019622032 -0.0050763795 0.09546136
0001f0 5c ac db 3c ee f4 ec 3d 42 a2 98 bd 6f da a2 3b
       0.026815586 0.11570154 -0.07452823 0.004969887
000200 16 39 8f 3d d4 8d bc bd 5a 22 6f 3d 40 32 1c be
       0.0699331 -0.09206739 0.05838237 -0.15253544
000210 c4 e5 c1 3c d9 75 02 3d 9d e4 9f bb 3a f0 36 bd
       0.023669131 0.03185067 -0.0048795477 -0.04466269
000220 34 fe 0e be db ca 00 3d 62 4a d8 3c c6 7f 7a 3c
       -0.13964158 0.031443458 0.026402656 0.015289253
000230 01 e4 ad bd 56 06 24 3b dc e4 b9 3d 54 9a 8b bd
       -0.08490754 0.002502819 0.090768546 -0.06816545
000240 32 9e 40 bd 37 93 29 3a a6 ab 5e bc 79 b4 61 bd
       -0.047025867 0.0006468775 -0.013590729 -0.055103753
000250 1c e6 62 3d e8 af 53 bd b5 a9 30 3d 71 1b e0 3d
       0.05539523 -0.05168143 0.043130595 0.10942734
000260 46 ca f5 bc 3a 71 8b 3d b4 e4 f9 bc 87 1e 19 be
       -0.030003678 0.06808706 -0.030504562 -0.14953052
000270 bd ad c1 bd 7c ea b8 bd d9 b1 c6 bd 64 3d e4 3d
       -0.09456966 -0.09029099 -0.097018905 0.11144522
000280 9e 5c 8f 3d d6 91 be bc cc 8f 18 3b 1e a2 c6 3b
       0.07000087 -0.0232629 0.002327907 0.0060618063
000290 b1 90 6a 3d 7a a2 cc 3c 0f 51 1b be c6 1e 0d bd
       0.057266895 0.024979819 -0.1516764 -0.034453176
0002a0 f3 4e 30 bc d2 e9 ae 3d 9f e3 90 3d 6f 5f f0 bd
       -0.01076101 0.085406914 0.07074665 -0.117369525
0002b0 c2 e2 6f bd e0 93 74 3c 20 e8 ba 3c 56 8b 0e 3e
       -0.058565862 0.014927834 0.022815764 0.1392034
0002c0 87 bc d1 bd 51 46 c7 bd 80 b3 1c bd 1f ec cf bd
       -0.10241037 -0.09730209 -0.038257122 -0.101524584
0002d0 c7 e2 1b bd 64 2e e1 3d 8e 46 28 bd 2a 1e 45 3d
       -0.03805807 0.109951764 -0.04108291 0.04812447
0002e0 a5 95 0c be 2e 92 89 bc 84 65 62 bd 77 21 a0 bd
       -0.1372896 -0.016793337 -0.055272594 -0.07818883
0002f0 2c dd 06 be ce cf 38 3d 42 31 ad bd e3 ee c7 3d
       -0.13170308 0.045120053 -0.08456661 0.09762361
000300 a4 6f 84 3d 09 f0 ff bb 07 20 79 bc e6 ee 83 bd
       0.06466606 -0.007810597 -0.01520539 -0.06442051
000310 cd 17 92 bd 46 8d 68 3d b9 6b 92 3d 88 3e 36 3e
       -0.07133446 0.056775354 0.07149453 0.17797291
000320 e4 94 da bd da 91 5f 3d 06 e5 0c bd 54 fd 1b bc
       -0.1067293 0.054582454 -0.0343981 -0.009520847
000330 02 67 92 3d 72 c1 91 bd fb 9e 16 3d 2f e2 fd 3c
       0.071485534 -0.07116975 0.03677271 0.030991642
000340 4f ae 45 bd 46 ad ab 3d b9 18 8a bd aa ef 9e bb
       -0.048261937 0.08382659 -0.06742997 -0.0048503475
000350 c1 95 de 3c ad af 04 bd d7 60 ae bd c3 50 d8 3d
       0.027171018 -0.0323941 -0.085145645 0.10562279
000360 b1 67 91 3c e7 ea bb 3d 6a 04 8b 3d 0c 22 32 be
       0.01774964 0.091756634 0.06787951 -0.173958
000370 74 62 f5 bd f9 81 a6 bd 4f f1 10 bd 42 bd 3d bd
       -0.11981669 -0.08130259 -0.03538638 -0.04632307
000380 8c be ae bd ff 7c 67 bc a1 2b f3 3d 5b a6 15 bd
       -0.08532438 -0.0141289225 0.11873556 -0.036535602
000390 e9 ad b7 3d 4d 91 df bc 9e fa 3a 3d ee eb 4c 3d
       0.089687176 -0.027290964 0.045649163 0.050029688
0003a0 35 09 80 bd ca e2 f9 3c 71 5e 62 bd 16 32 03 bd
       -0.06251756 0.03050365 -0.055265848 -0.032030188
0003b0 f8 0e 85 bd 42 b5 91 3c 6e 26 55 3d ef 15 b8 3d
       -0.06496996 0.017786626 0.052038603 0.089885585
0003c0 a9 1b 00 3e 87 9a be bb e3 d6 49 bd 0f 36 5b 3d
       0.12510552 -0.005816761 -0.049277198 0.05351835
0003d0 cb 2c bb bd 26 94 78 3d 40 32 d9 3d b2 66 e7 bd
       -0.09139403 0.06068816 0.106052876 -0.112988845
0003e0 e2 80 b6 bd d2 3a 5f bd cd 07 c7 bd 27 8c d5 bd
       -0.08911301 -0.054499455 -0.09718285 -0.104271226
0003f0 02 dc f8 bd 17 d9 f8 bd 5f f6 90 3d 48 89 4a 3e
       -0.12151338 -0.121507816 0.070782416 0.19778931

bias f4 [64]
000000 4f d0 af 3d 9c d3 2e 3c 5d c6 04 be df f0 ec 3d
       0.085846536 0.010670569 -0.12966295 0.1156938
000010 6a f6 12 bd b9 bb 61 bd 6f 19 c5 bd 57 1a a7 bd
       -0.03587953 -0.055110667 -0.09623992 -0.08159321
000020 2c 34 c0 bd 42 71 8a bd 96 83 63 bd 0f 53 d0 bd
       -0.09384951 -0.067598835 -0.055545412 -0.10172092
000030 54 4d 83 3d 87 94 a9 bd b8 5e 90 bc 79 d6 b1 bd
       0.064112335 -0.082802825 -0.01762329 -0.086834855
000040 7c 57 aa bd 8c 0a 0a bd f2 c9 d6 bd ff b5 b9 3d
       -0.083174676 -0.033701465 -0.10487737 0.09067916
000050 0a 08 a4 bd 12 a3 04 bc ec 00 ec 3d d6 34 01 bd
       -0.08009346 -0.00809552 0.11523613 -0.03154453
000060 e5 89 bb bd 65 24 3f 3d 6a 20 03 be ba 02 a9 39
       -0.09157161 0.046665568 -0.12805334 0.00032236223
000070 c8 b3 6b bd c4 f2 c2 3d bc 3d 36 bd e0 6f 9b 3c
       -0.0575445 0.0951896 -0.04449247 0.018974245
000080 4c d1 88 3d e8 d7 54 bd a3 aa 6e 3d 3d 03 04 bd
       0.06680545 -0.051963717 0.0582682 -0.03222965
000090 07 f4 d4 3c f3 f4 2e bd 83 ae 81 bd 7d 88 ce 3d
       0.025995268 -0.04271407 -0.063321136 0.10084627
0000a0 b6 8e 61 bd bc e3 83 bd 50 82 3b 3d 01 f6 59 bd
       -0.05506774 -0.06439921 0.045778573 -0.053213123
0000b0 b7 e8 b9 3d 33 a6 7d bc 38 05 30 bd 1b 74 9e bd
       0.0907759 -0.0154815195 -0.042973727 -0.07736989
0000c0 b6 98 19 bd 4c 21 98 3d 7d 65 8b 3c 1a d2 5f bd
       -0.037499152 0.07428226 0.017016167 -0.054643728
0000d0 6d da a0 3c da 21 76 3d 80 33 85 3d 22 16 f9 bc
       0.019635404 0.060090877 0.065039635 -0.030406062
0000e0 12 dd b5 3c 98 9f 9a bd 75 37 c0 bd 35 4a 96 bd
       0.022200141 -0.07549971 -0.093855776 -0.073383726
0000f0 4a f6 77 bd 9a bb 62 bd 3e 7b 6e 3d 59 db a3 3d
       -0.060537614 -0.055354692 0.058223 0.080008216

weight f4 [1, 64]
000000 d4 61 95 3d de 10 c2 bb 3a 35 a5 3d e6 22 05 3d
       0.0729405 -0.005922421 0.08066793 0.032503985
000010 8d 03 d8 3d a8 66 07 3d 3a 84 af 3d 82 c4 91 ba
       0.10547552 0.033056885 0.08570142 -0.0011121186
000020 51 09 79 bd 79 5f 6b bd 3c 4a 18 3d 04 6d c2 bd
       -0.0607999 -0.057464097 0.03718017 -0.09493449
000030 99 3b b8 3c 12 10 96 bc bf f0 30 bd 09 e7 e1 3c
       0.022489356 -0.01831821 -0.043198343 0.027575986
000040 62 25 45 3d 4b 9f 5e bd 3c 40 62 3d d5 b2 a0 bc
       0.048131354 -0.054351132 0.05523704 -0.019616524
000050 f3 e3 e8 3c 59 62 b2 3b ab 41 ef bc 5a c0 38 bd
       0.028429007 0.005443853 -0.029206118 -0.045105316
000060 f0 e4 e0 3d c4 03 18 3c 31 ba 94 3d 20 e1 d8 3d
       0.10981166 0.009278242 0.07262076 0.10589814
000070 16 09 a3 bd db 8b ab 3d 01 a6 df 3d 16 a7 49 bd
       -0.079607174 0.08376285 0.109203346 -0.04923161
000080 56 ec a1 bd a1 89 a0 bc ea da cc 3d 68 18 95 bd
       -0.07906406 -0.019596877 0.10002692 -0.07280046
000090 63 8b 58 bd 29 67 bc bd a6 58 34 3d b8 85 a5 3c
       -0.052867305 -0.09199364 0.044029854 0.020205364
0000a0 19 38 16 bd 6b 34 27 3d 80 af 9a 3d a9 35 af bd
       -0.036674593 0.040821474 0.07553005 -0.08555157
0000b0 ca 75 33 bd 2d eb 3c bd 23 a6 ff bd c5 f4 e7 3d
       -0.043813504 -0.04612272 -0.1248286 0.11325983
0000c0 3c 73 be bd 75 69 90 bd 5e d0 c0 bd ab fd 62 3d
       -0.09299323 -0.07051364 -0.09414743 0.055417698
0000d0 f9 78 d8 3d be 25 76 3c e4 44 d5 bd fb 73 17 3e
       0.10569949 0.015023647 -0.104135305 0.14790337
0000e0 56 06 bd bc aa 57 82 bc bf ca 17 3e 96 ce af bd
       -0.02307431 -0.015910942 0.14823435 -0.08584325
0000f0 8e ad 8a bd 2e 0d e9 bc bc 43 fc 3c ee 80 18 bb
       -0.06771384 -0.028448667 0.030794017 -0.0023270207
